Snake-Game-Player/model/model2.pth (torch, 93438 bytes, 6 tensors)

linear_1.weight f4 [256, 23]
0	0xbe81a106	-0.25318164
1	0xbdfdba1a	-0.12389012
2	0xbcec6e53	-0.0288612
3	0x3d9e40bf	0.07727193
4	0x3db4d15b	0.08828994
5	0xbcb5ec7d	-0.022207493
6	0xbd8e574d	-0.06950245
7	0xbd626c20	-0.055278897
8	0xbec2d758	-0.3805492
9	0xbe711815	-0.23544343
10	0x3e8ade6d	0.27122822
11	0xbd53b975	-0.051690537
12	0x3d43135b	0.04762588
13	0x3dddc424	0.108284265
14	0xbd980ae8	-0.07423955
15	0xbf19b78c	-0.60045695
16	0xbe3c3b2d	-0.18381949
17	0xbe994d55	-0.29941812
18	0x3db70f80	0.08938503
19	0x3e345f0d	0.17614384
20	0xbc181c4c	-0.00928409
21	0x3d5860db	0.052826744
22	0x3d7db023	0.061935555
23	0x3e117677	0.14205347
24	0xbe76cba7	-0.24101125
25	0x3e39dc59	0.18150462
26	0x3d18bdfd	0.037290562
27	0x3d19e51b	0.037572008
28	0x3e1741f2	0.1477125
29	0xbe3c00eb	-0.18359725
30	0xbdbb5d24	-0.091486245
31	0x3e997546	0.29972285
32	0x3db1753b	0.08664938
33	0xbe1f407e	-0.15551946
34	0x3dc54b52	0.09633507
35	0xbcbcd19b	-0.023049166
36	0xbe4a83a7	-0.19776784
37	0xbe14cc7b	-0.14531128
38	0xbead480b	-0.33844027
39	0x3e10eebf	0.14153574
40	0xbeab4b66	-0.33455962
41	0x3e12ca7e	0.14335057
42	0x3e1bbe98	0.15209424
43	0x3dc31158	0.095247924
44	0xbd7ea5a9	-0.062169705
45	0xbda34b27	-0.079733185
46	0xbd2cc56f	-0.042180475
47	0xbe792825	-0.2433172
48	0xbdbc9891	-0.09208787
49	0xbea13d3d	-0.31492034
50	0x3c82e097	0.015976233
51	0x3da98ac3	0.0827842
52	0x3e41f2ae	0.18940231
53	0x3d6aa33b	0.057284575
54	0x3d64c7fd	0.055854786
55	0xbe09aeab	-0.13445537
56	0xbec6d660	-0.3883543
57	0xbb8e866a	-0.0043495195
58	0xbd94d108	-0.07266432
59	0x3e02c9c9	0.12772287
60	0x3e100436	0.14064106
61	0xbe7bee09	-0.24602522
62	0xbe09802b	-0.13427798
63	0xbd319530	-0.043355167
64	0x3e7f3d1e	0.24925658
65	0x3de5783f	0.11204576
66	0xbe2874c0	-0.16450787
67	0xbcc30c2d	-0.023809517
68	0xbdecf786	-0.11570649
69	0xbdbabc29	-0.0911792
70	0xbda2d242	-0.0795026
71	0x3a764900	0.0009395033
72	0x3d541036	0.051773272
73	0x3e0b29b7	0.13590132
74	0x3de2bb78	0.11070913
75	0xbdc09191	-0.094027646
76	0x3daecbdf	0.08534979
77	0xbca98fd9	-0.020698475
78	0xbe1f083e	-0.15530488
79	0x3e58255a	0.21107998
80	0x3e0fdd61	0.14049293
81	0xbda03776	-0.07823078
82	0x3df97e7b	0.12182327
83	0xbe405e1c	-0.187859
84	0xbe725a54	-0.2366727
85	0xbcab5a26	-0.02091701
86	0xbe7112d8	-0.23542345
87	0x3d22558e	0.039632373
88	0xbcb80cba	-0.022467006
89	0xbe4c902b	-0.1997687
90	0x3bfd7bfd	0.007735728
91	0xbe261ef8	-0.16222751
92	0x3c0ac68d	0.00847019
93	0x3da0bb50	0.07848227
94	0x3de3db01	0.11125756
95	0x3d26dd30	0.040738285
96	0xbc3185df	-0.01083514
97	0xbe126e55	-0.14299901
98	0x3e04b837	0.12960897
99	0x3e503a5b	0.20334761
100	0xbe4f4767	-0.20242082
101	0x3e8a81a6	0.2705204
102	0xbe091ac8	-0.13389122
103	0xbd824099	-0.06359977
104	0x3cd3eb4f	0.02586904
105	0x3d7123d9	0.058872078
106	0x3e1c055a	0.15236416
107	0xbe33cffb	-0.17559807
108	0x3d5d8344	0.054080263
109	0xbed3498f	-0.41267058
110	0xba88fcee	-0.0010451355
111	0xbe01c6b3	-0.12673454
112	0xbdc67fbc	-0.09692332
113	0x3e064105	0.1311074
114	0x3e15ff97	0.14648281
115	0x3d84b9cd	0.06480751
116	0xbd6893aa	-0.05678145
117	0x3da7216a	0.0816067
118	0x3c7a3474	0.015271295
119	0xbe4b28e0	-0.19839811
120	0x3dd8376e	0.105574474
121	0xbe09e27f	-0.13465308
122	0xbd3458eb	-0.04403011
123	0xbd1fbeb7	-0.03900024
124	0xbe079d17	-0.13243519
125	0xbe140509	-0.14455046
126	0xbd56976d	-0.052390505
127	0x3e430843	0.1904612
128	0xbe3743c9	-0.17896952
129	0xbd28c5c6	-0.041204236
130	0xbd74ad7a	-0.059735753
131	0xbeab0ee9	-0.33409813
132	0xbd909827	-0.07060271
133	0x3e6ec77e	0.23318288
134	0xbe40c39c	-0.18824619
135	0xbb5964cb	-0.003317165
136	0xbe5b8ca9	-0.21440376
137	0xbe1ce78c	-0.15322703
138	0x3cc12f7e	0.023582216
139	0x3d45ec20	0.04832089
140	0x3d1dbe5f	0.03851163
141	0x3dd7060e	0.10499202
142	0xbe2576bf	-0.1615858
143	0xbee7e45c	-0.45291412
144	0xbe2b08dc	-0.16702598
145	0xbeacaac6	-0.3372404
146	0x3e9b8ad1	0.30379346
147	0xbdd78ba2	-0.1052468
148	0x3e50133c	0.20319837
149	0xbd34dd43	-0.044156324
150	0xbd4429c7	-0.047891404
151	0x3d611be5	0.054958243
152	0xbd773c69	-0.060360346
153	0x3e82a693	0.2551771
154	0xbe88efc4	-0.26745427
155	0xbe04780b	-0.12936418
156	0x3e810163	0.2519637
157	0x3d35317e	0.044236653
158	0xbd778aa0	-0.060434937
159	0x3da2c7eb	0.079482876
160	0x3e009cbe	0.12559792
161	0xbe5e2543	-0.21693902
162	0x3d869d1c	0.06572935
163	0xbda1da77	-0.07902997
164	0xbbc778c6	-0.0060873954
165	0xbe5283f3	-0.20558147
166	0xbdef8d13	-0.1169683
167	0x3e240935	0.16019137
168	0x3cb2ce7a	0.021826971
169	0x3d331d60	0.043729186
170	0x3e44ec5f	0.19230793
171	0xbe15c697	-0.14626537
172	0x3da305ea	0.079601124
173	0x3e7f6c00	0.24943542
174	0xbdcd3403	-0.10019686
175	0x3e16d625	0.14730127
176	0x3e6be8c5	0.23038013
177	0xbe7fddce	-0.24986956
178	0x3d8e6985	0.0695372
179	0xbe4debd8	-0.20109499
180	0xbde8c06b	-0.11364826
181	0xbd53aff6	-0.05168148
182	0xbe2a8973	-0.16653995
183	0x3d9cbb34	0.07652894
184	0x3e2a5cc2	0.16636947
185	0x3e67a8ef	0.22623037
186	0xbdce97a7	-0.10087519
187	0xbddf29a6	-0.10896616
188	0xbd9b2bf7	-0.07576745
189	0xbe3225a2	-0.17397168
190	0x3d748d97	0.059705343
191	0xbeb40f96	-0.3516814
192	0x3e885931	0.26630548
193	0x3e805e4a	0.25071937
194	0x3c549b4e	0.012976481
195	0x3d9c3b35	0.0762848
196	0xbc105907	-0.008810288
197	0xbda0963d	-0.07841156
198	0xbacc40e7	-0.0015583307
199	0x3e3aca2f	0.1824119
200	0xbedcaad3	-0.4309908
201	0x3e55f2dd	0.20893426
202	0xbe4d0014	-0.20019561
203	0xbd8224b8	-0.0635466
204	0x3c874dc0	0.016516566
205	0xbe110f8f	-0.14166091
206	0xbe0b7ab1	-0.13621022
207	0x3e8a4e08	0.27012658
208	0x3dfd1a61	0.12358547
209	0xbbae3126	-0.0053159175
210	0x3cab4ea5	0.020911524
211	0xbe35b5c1	-0.17745115
212	0xbde6b648	-0.11265236
213	0x3c2f685f	0.010706036
214	0xbe87c546	-0.26517695
215	0x3e9692f7	0.29409
216	0x3dad4263	0.08459928
217	0xbe405375	-0.18781836
218	0xbde5d4ab	-0.11222204
219	0x3c4bb5bd	0.0124334665
220	0xbcb7f70b	-0.022456666
221	0xbe1fb69a	-0.15597
222	0x3ea78edd	0.32726184
223	0xbe194fd2	-0.14971855
224	0x3dd9e5df	0.106395476
225	0x3e807a72	0.25093418
226	0x3df07b90	0.11742318
227	0xbb8fa51d	-0.0043836967
228	0xbd6517e7	-0.055931
229	0xbc77b2a3	-0.015118274
230	0x3dd97c92	0.10619463
231	0xbc8f3114	-0.017479457
232	0x3da66aa8	0.08125812
233	0x3e2cd53c	0.16878217
234	0x3e4e35cd	0.20137711
235	0x3e8005e0	0.25004482
236	0x3d93485f	0.07191538
237	0xbe8f9ecb	-0.28050837
238	0x3cae4812	0.0212746
239	0xbe96de42	-0.29466444
240	0xbe54d44d	-0.20784111
241	0xbe1bd4b7	-0.15217863
242	0xbea3cc38	-0.31991744
243	0x3de1c4ed	0.11023889
244	0xbc8d67ef	-0.017261473
245	0xbdbaafe0	-0.09115577
246	0xbe2df347	-0.16987334
247	0x3e18d30d	0.1492426
248	0xbac31216	-0.0014882709
249	0x3d8f5f88	0.07000643
250	0xbe936377	-0.28786823
251	0xbe740cdb	-0.23833029
252	0xbe2b511d	-0.16730161
253	0x3e194012	0.14965847
254	0x3eaf305d	0.34216586
255	0x3e212053	0.15734987

linear_1.bias f4 [256]
0	0x3d3dcea1	0.046339635
1	0x3e1bfdc0	0.15233517
2	0xbde3ee2f	-0.11129414
3	0xbe7265cd	-0.23671646
4	0xbe557108	-0.20843899
5	0x3d8dac19	0.06917591
6	0xbdf6dcf5	-0.12053863
7	0xbe84bd4b	-0.2592567
8	0x3e0d211d	0.13782163
9	0xbd80f47b	-0.06296631
10	0xbd82f8cf	-0.06395113
11	0x3e1def1e	0.15423247
12	0xbe3584d2	-0.17726448
13	0xbe89538e	-0.2682156
14	0x3dca4ac8	0.09877545
15	0xbd5d6899	-0.05405483
16	0x3da088db	0.07838603
17	0x3d651e9b	0.05593739
18	0xbe01cb7a	-0.12675276
19	0x3ced174e	0.028941777
20	0xbe60005b	-0.21875136
21	0xbe54727a	-0.20746794
22	0xbde04e77	-0.10952466
23	0xbe9eb6f7	-0.30998966
24	0x3dabd6c0	0.0839057
25	0xbd8c4e54	-0.068508774
26	0xbe569ac5	-0.20957477
27	0x3de24657	0.110485725
28	0x3daa76a8	0.08323413
29	0xbd8c2000	-0.06842041
30	0xbc77b007	-0.015117652
31	0xbdd1f436	-0.10251658
32	0x3bcba980	0.0062152743
33	0xbc8f74dd	-0.01751178
34	0xbd497dc4	-0.049192205
35	0x3d93b866	0.072129056
36	0xbb1f653d	-0.0024321817
37	0xbe813e3d	-0.25242797
38	0xbd186970	-0.037209928
39	0xbde1ac4e	-0.11019193
40	0x3c31d5b0	0.01085417
41	0xbe1f6b90	-0.15568376
42	0x3dcc4e21	0.099758394
43	0x3de84748	0.11341721
44	0x3d3b8b5b	0.045787197
45	0x3c12674a	0.008935759
46	0x3ce8a0b9	0.028396951
47	0x3c0e60c7	0.008690066
48	0xbdc3b74e	-0.09556447
49	0x3dd9e7fd	0.106399514
50	0xbde6dd6e	-0.11272703
51	0xbe0ed901	-0.13949968
52	0xbe57dd41	-0.21080495
53	0x3e0915e5	0.13387258
54	0x3dbfe98b	0.09370717
55	0xbd95be7f	-0.07311725
56	0xbe2033ce	-0.15644762
57	0x3d8e988d	0.069626905
58	0x3e00d59f	0.1258149
59	0x3e0ba700	0.13637924
60	0xbcdfeb9c	-0.027334027
61	0xbc695606	-0.014241701
62	0xbe4c2729	-0.19936813
63	0xbcf9498b	-0.030430576
64	0xbd839379	-0.064246126
65	0x3d4e16f9	0.050314877
66	0x3deb28f4	0.114824206
67	0xbdcf2028	-0.10113555
68	0x3d7f0470	0.06226009
69	0x3e027caf	0.12742876
70	0xbd46bac5	-0.04851796
71	0x3d649e1c	0.055814847
72	0xbdc84ace	-0.09779893
73	0x3d7e7e35	0.06213208
74	0x3e0b4168	0.13599169
75	0x3dac9f75	0.084288515
76	0xbe63f971	-0.22263123
77	0x3e17c95c	0.14822906
78	0xbdb5d963	-0.08879354
79	0x3d841243	0.06448796
80	0xbe1c74b8	-0.152789
81	0xbe4cf294	-0.20014411
82	0xbd68b9fd	-0.056817997
83	0xbc05c576	-0.008164754
84	0x3c9c2ee8	0.019065335
85	0xbd858577	-0.06519597
86	0x3dee117f	0.11624431
87	0x3c80c115	0.015717069
88	0xbe82f459	-0.25577047
89	0xbdca128a	-0.09866817
90	0xbe467289	-0.19379629
91	0xbd87c209	-0.06628806
92	0xbe6e9a08	-0.23300946
93	0x3cf7c2cb	0.030244252
94	0xbe3aae09	-0.18230452
95	0xbe578b53	-0.21049242
96	0x3db6536e	0.08902632
97	0xbd6358c8	-0.05550459
98	0xbdec335e	-0.11533235
99	0x3e4c2ec8	0.1993972
100	0xbc66bd81	-0.014083267
101	0xbd353221	-0.04423726
102	0x3cf93465	0.030420491
103	0x3e3bff31	0.18359067
104	0x3cc680d8	0.02423136
105	0xbe2eca23	-0.17069297
106	0xbd9e692e	-0.07734905
107	0xbe4a66d6	-0.19765791
108	0xbe3b88d3	-0.18313913
109	0xbd827351	-0.06369651
110	0xbe3aef70	-0.182554
111	0xbb5e3709	-0.0033907315
112	0xbe1561e0	-0.14588118
113	0xbe42df45	-0.19030483
114	0xbe4f6686	-0.20253953
115	0xbd98606a	-0.074402645
116	0xbe32fb66	-0.17478713
117	0x3d1b7c82	0.037960537
118	0xbe3fd2c9	-0.18732752
119	0xbe2aadd0	-0.16667867
120	0x3df90c1b	0.12160512
121	0x3de911d6	0.11380355
122	0xbe88109e	-0.26575178
123	0x3e025125	0.12726267
124	0x3e021880	0.12704659
125	0xbdfed72d	-0.12443385
126	0x3dba6b18	0.09102458
127	0x3c9ebc25	0.019376824
128	0x3dfa309d	0.122163035
129	0xbe53a64f	-0.2066891
130	0xbcf6fba0	-0.030149281
131	0x3d12834e	0.035769753
132	0xbd040cbd	-0.03223871
133	0xbe80019e	-0.25001234
134	0xbe4cb980	-0.19992638
135	0x3dba2148	0.09088379
136	0xbe22b1f4	-0.15888196
137	0x3e22bc76	0.15892205
138	0x3de3f6ee	0.111310825
139	0x3dc26dc0	0.094935894
140	0xbe16572d	-0.14681692
141	0xbe40dd96	-0.18834528
142	0xbdbae351	-0.091253884
143	0xbc8edb19	-0.017438458
144	0xba0aee18	-0.0005299761
145	0xbe282897	-0.16421734
146	0xbd635b97	-0.05550727
147	0x3e2292bc	0.15876287
148	0xbdb3ec6b	-0.087853275
149	0x3d17e651	0.03708488
150	0xbd8dbf93	-0.069213055
151	0x3e4a861d	0.19777723
152	0xbe1f0dea	-0.15532652
153	0x3e4b894c	0.19876593
154	0x3d6a9a0c	0.057275817
155	0x3c2653cb	0.010151814
156	0x3db46aed	0.08809457
157	0x3cf5358c	0.02993276
158	0xbcb61d91	-0.022230895
159	0x3d79c994	0.060983256
160	0x3dcd4584	0.10023025
161	0x3da3bf48	0.079954684
162	0xbd846115	-0.064638294
163	0xbc64c21a	-0.013962293
164	0xbe49df68	-0.19714129
165	0x3e02eac3	0.12784867
166	0xbe68af85	-0.22723205
167	0xbb8e4fd6	-0.0043430133
168	0x3df3ab60	0.118979216
169	0x3e268c42	0.16264442
170	0xbdafe973	-0.08589449
171	0xbdf8ff2d	-0.12158046
172	0xbe22f957	-0.15915428
173	0xbc858e9a	-0.01630335
174	0x3e0bb25d	0.13642259
175	0xbe51ce27	-0.20488797
176	0xbace22de	-0.0015726944
177	0xbe38f692	-0.18062809
178	0xbca8c2ac	-0.02060064
179	0xbe33eda2	-0.17571118
180	0xbe068412	-0.13136318
181	0x3e4c6aaa	0.19962564
182	0x3d5d9a3c	0.054102167
183	0xbdbd103b	-0.09231611
184	0xbe6c76ea	-0.23092237
185	0xbe1192c4	-0.14216143
186	0x3b51f4dc	0.0032036817
187	0xbe012c13	-0.12614469
188	0x3e137362	0.14399484
189	0xbe1f7b0b	-0.15574281
190	0xbd3607a7	-0.04444089
191	0xbcfc7d49	-0.03082146
192	0xbe2883da	-0.16456547
193	0xbdc29e73	-0.09502878
194	0xbd082e22	-0.03324712
195	0x3e08a54e	0.13344309
196	0xbcc66168	-0.024216369
197	0xbd947e4f	-0.07250654
198	0xbcb45b86	-0.022016298
199	0xbd8f0013	-0.06982436
200	0x3d3c05d7	0.045904007
201	0xbceba3e7	-0.028764678
202	0xbdfb35a9	-0.12266094
203	0xbc21263b	-0.009835775
204	0x3df0c1fb	0.11755749
205	0x3dfb9853	0.12284913
206	0xbd8a6950	-0.06758368
207	0x3b659a34	0.003503454
208	0xbe243841	-0.16037084
209	0xbc3c6c76	-0.0115004685
210	0xbddd7b32	-0.10814513
211	0xbe580cd3	-0.21098642
212	0xbde40118	-0.11133021
213	0xbd7606ad	-0.06006496
214	0x3d2a5f45	0.041594762
215	0xbd9d813e	-0.076906666
216	0x3d473e49	0.048643384
217	0x3e168aa1	0.1470132
218	0xbdc5d627	-0.09659987
219	0x3d9dbd3b	0.077021085
220	0xbe7ad413	-0.24494962
221	0x3e1501cc	0.14551467
222	0xbe71e4ce	-0.23622438
223	0xbdd1a7d1	-0.102370866
224	0xbe328c15	-0.1743625
225	0x3d362cc0	0.04447627
226	0xbe218181	-0.15772058
227	0xbdf154cd	-0.117837526
228	0xbccc6a66	-0.024953078
229	0x3d445204	0.04792978
230	0xbd5934d6	-0.053028904
231	0x3b675ab6	0.003530187
232	0xbe5c6dc0	-0.21526241
233	0x3e15da7b	0.14634125
234	0xbd70dc25	-0.058803696
235	0xbdeaae39	-0.114590116
236	0xbde93231	-0.113865264
237	0xbe61b5ca	-0.22042003
238	0x3e711777	0.23544107
239	0xbe51de2c	-0.20494908
240	0xbe860a89	-0.26179913
241	0x3d908a72	0.07057656
242	0xbd053644	-0.032522455
243	0x3d1ae6f1	0.0378179
244	0x3e4fe382	0.20301631
245	0x3c4238f5	0.0118544
246	0xbe533eb2	-0.20629385
247	0xbdcc7434	-0.099831015
248	0xbe4f1816	-0.20224032
249	0x3e7461a2	0.23865369
250	0xbe14be7b	-0.14525788
251	0x3d843f87	0.064574294
252	0xbe41d563	-0.18929057
253	0xbd19049e	-0.03735792
254	0xbd20a18c	-0.039216563
255	0xbd7e746c	-0.062122747

linear_2.weight f4 [64, 256]
0	0xbd89afdb	-0.06722995
1	0xbd00601f	-0.03134167
2	0xbd78a806	-0.060707115
3	0x3d2018f6	0.039086305
4	0xbd49bda8	-0.049253136
5	0xbc06b6aa	-0.008222261
6	0xbd0891b3	-0.033342075
7	0xbc758abe	-0.014986692
8	0xbc0cd60c	-0.008595955
9	0xbdaa7703	-0.08323481
10	0x3cbfa357	0.023393316
11	0xbd4cccc6	-0.049999975
12	0x3c248fae	0.0100440215
13	0xbdb6b261	-0.08920742
14	0x3c0ed530	0.00871782
15	0xbd9d6ad2	-0.0768639
16	0xbdd9f42e	-0.10642277
17	0xbd965c51	-0.07341827
18	0x3d52b6cb	0.051443856
19	0xbbf19916	-0.0073729856
20	0xbd7a0542	-0.06104017
21	0xbb5bf9ad	-0.0033565566
22	0x3d35fbe2	0.044429667
23	0xbd111927	-0.035424378
24	0xbd800a7d	-0.062520005
25	0x3d79592d	0.06087606
26	0xbd6a2fa6	-0.057174347
27	0x39b66316	0.0003478757
28	0x3c91d841	0.017803313
29	0xbdf3b4f6	-0.1189975
30	0xbd785241	-0.06062532
31	0x3d238aaf	0.03992718
32	0xbd5dca0b	-0.05414776
33	0xbcbd7039	-0.023124801
34	0x3bb8dfcb	0.0056419126
35	0xbd6c953e	-0.057759516
36	0xbce4d7f3	-0.027935004
37	0x3cdcefa2	0.026969735
38	0xbc02cef7	-0.007983915
39	0xbdcd2aa7	-0.10017901
40	0x3d48b8d0	0.049004376
41	0xbdca296d	-0.098711826
42	0xbcc70fa4	-0.02429945
43	0x3c80fc3e	0.015745278
44	0xbb82c58f	-0.003990836
45	0x3c92fdc6	0.017943274
46	0x3a1f86eb	0.0006085473
47	0xbcf3e2a8	-0.029771164
48	0xbd257d64	-0.040402785
49	0xbcb6a080	-0.02229333
50	0xbcfec5d2	-0.031100187
51	0x3cad1cdc	0.021131925
52	0xbbe1dd19	-0.006892812
53	0x3d844aa9	0.06459553
54	0xbd63a0de	-0.055573337
55	0xbe04c66c	-0.12966317
56	0xbccd8cc1	-0.02509153
57	0xbd545f17	-0.051848497
58	0x3c1a8131	0.009430216
59	0xbd916bca	-0.07100637
60	0x3b2a25f6	0.0025962568
61	0x3e0139c1	0.12619688
62	0x3af5d227	0.0018754647
63	0xbd7d14bb	-0.06178735
64	0x3d185c6c	0.037197515
65	0xbd579de4	-0.05264081
66	0xbc99ba5e	-0.018765625
67	0xbe21aa00	-0.15787506
68	0xbd8554f7	-0.065103464
69	0xbdb82b23	-0.08992603
70	0x3a9caf29	0.0011954057
71	0xbc915a23	-0.017743176
72	0xbda362ba	-0.07977815
73	0xbd6921df	-0.056917068
74	0xbdb6b44f	-0.0892111
75	0xbdb80987	-0.08986192
76	0xbd64d15e	-0.05586373
77	0xbe231798	-0.15926969
78	0x3d3d3adf	0.046198722
79	0x3c9a219d	0.018814856
80	0xba8bcb9a	-0.0010665536
81	0xbcc5dd9b	-0.024153521
82	0xbd782879	-0.060585473
83	0xbcb62e48	-0.022238865
84	0x3d0b6175	0.03402849
85	0xbcc58c9c	-0.0241149
86	0xbd704254	-0.058657005
87	0xbc4de3f7	-0.012566558
88	0x3d4cf12b	0.050034683
89	0x3e009d0e	0.12559912
90	0xbd3b8dea	-0.045789637
91	0xbd90e016	-0.07073991
92	0xbd1e1f0c	-0.038603827
93	0x3d666b48	0.056254655
94	0x3d7cae74	0.06168981
95	0x3d89a6f3	0.06721296
96	0xbd57b806	-0.052665733
97	0x3d95e730	0.07319486
98	0xbd5e0989	-0.054208312
99	0xbda14c9a	-0.07875939
100	0xbd29a474	-0.0414166
101	0xbcac2c35	-0.021017173
102	0x3d1d3e65	0.038389582
103	0x3c28afa7	0.010295785
104	0xbd564dfd	-0.05232047
105	0xbcb9b1ca	-0.022667784
106	0xbc979a93	-0.018506324
107	0xbd1ce6d1	-0.03830606
108	0x3d0bd2b8	0.034136504
109	0xbc6c32b1	-0.014416383
110	0xbdac9bd3	-0.084281586
111	0xbdb0279f	-0.08601307
112	0xbc88f2f2	-0.016717408
113	0xbd49543e	-0.049152605
114	0xbc466d97	-0.012111089
115	0x3d128207	0.035768535
116	0x3cf1926d	0.029488767
117	0xbd04fa24	-0.032465115
118	0x3cf17b3c	0.029477708
119	0xbde3e8f4	-0.11128417
120	0x3c324e18	0.010882877
121	0x3d0682c0	0.032839537
122	0xbd2ebff5	-0.042663533
123	0xbd0c3c95	-0.034237463
124	0x3a68ce69	0.0008880855
125	0xbd6e461c	-0.05817233
126	0xbc916b11	-0.017751249
127	0xbcc1f72f	-0.023677437
128	0xbc0c3864	-0.008558366
129	0xbdde5c13	-0.108574055
130	0xbde40d1b	-0.11135312
131	0xbc8df70a	-0.017329711
132	0xbd0626d8	-0.032751888
133	0xbd4aabca	-0.049480237
134	0xbc3961f2	-0.011314856
135	0x3cb9341c	0.022607855
136	0xbdb5ba9d	-0.08873484
137	0xbe0a5167	-0.13507615
138	0x3c8787c0	0.016544223
139	0xbd67d46d	-0.05659907
140	0x3d7922d9	0.06082425
141	0x3c7027e6	0.01465795
142	0xbd884395	-0.06653515
143	0xbcee8fc7	-0.029121293
144	0xbd364f99	-0.044509504
145	0x3c77d3fa	0.015126223
146	0x3d68cd6f	0.05683654
147	0x3c63eb89	0.013911136
148	0xbdbf111e	-0.09329437
149	0xbda1269b	-0.078686915
150	0xbd9df83f	-0.07713365
151	0xbb10aaef	-0.002207454
152	0xbd088130	-0.033326328
153	0xbd347b9f	-0.044063207
154	0x3d1027b8	0.03519413
155	0x3c85e39f	0.01634389
156	0x3cebe6ec	0.028796636
157	0x3ce9fb80	0.028562307
158	0x3bd9b282	0.0066435942
159	0x3d2c2308	0.042025596
160	0xbd822e3c	-0.06356475
161	0xbc6d3b30	-0.014479443
162	0x3be0d4c9	0.0068613035
163	0xbc809023	-0.01569373
164	0xbd52f166	-0.051499747
165	0xbb1c7e71	-0.0023879076
166	0xbde76e85	-0.11300377
167	0xbd90c2e5	-0.07068423
168	0x3cb77738	0.022395715
169	0xbcd2bc6e	-0.025724616
170	0xbceabe81	-0.028655292
171	0xbd3bda9c	-0.04586278
172	0xbd02dd44	-0.031949297
173	0x3cdac7ed	0.02670666
174	0xbd140e02	-0.03614617
175	0x3d941f48	0.07232529
176	0xbd47e480	-0.0488019
177	0xbc75c098	-0.014999531
178	0x3c85bb04	0.016324528
179	0xbc0f9cb2	-0.008765386
180	0x3d4b11db	0.049577575
181	0x3d72b09a	0.05925045
182	0x3cfe3d0b	0.031034967
183	0xbe016994	-0.12637931
184	0xbd6718ad	-0.056420017
185	0xbcbc9017	-0.023017926
186	0x3d05d576	0.032674275
187	0x3cac8340	0.021058679
188	0xbc52acf4	-0.012858618
189	0xbd905c81	-0.07048894
190	0xbc3ccea1	-0.011523874
191	0x3d2e5280	0.042559147
192	0x3d383bf6	0.04497906
193	0xbcf0196f	-0.029309003
194	0x3ce90ac2	0.028447513
195	0xbd23531d	-0.039874185
196	0xbc88dc73	-0.01670668
197	0x3c1247f3	0.008928287
198	0xbd8a5cfb	-0.06756016
199	0x3d133455	0.03593858
200	0xbc4d1a1f	-0.012518435
201	0xbb834791	-0.004006334
202	0xbbb3af45	-0.0054835402
203	0xbddb13db	-0.106971465
204	0xbd2e78d4	-0.0425957
205	0xbd866353	-0.06561913
206	0x3c386525	0.0112545835
207	0xbc143823	-0.009046587
208	0x3cbabe32	0.02279577
209	0xbcc9ec67	-0.024648858
210	0xbd2309bc	-0.039804205
211	0x3c111d6b	0.008857111
212	0xbd4f75b9	-0.05064938
213	0x3d35de85	0.044401664
214	0xbd13f9c5	-0.03612687
215	0xbd0bd82e	-0.034141712
216	0xbd1859c0	-0.037194967
217	0xbbfac4dd	-0.0076528625
218	0x3cd95bc4	0.026533015
219	0xbd8f6ecb	-0.07003554
220	0xbcea9d62	-0.0286395
221	0x3cb0433b	0.021516433
222	0x3ca5f7bc	0.02025973
223	0x3bb58b72	0.005540305
224	0x3bd5f6c1	0.0065296595
225	0xbddc582b	-0.10759004
226	0x3c6a129e	0.014286665
227	0x3bcd7d83	0.0062710657
228	0xbddba9b5	-0.107257284
229	0x3d2ac00b	0.041687053
230	0x3d74cc69	0.059765253
231	0xbd9be779	-0.07612509
232	0xbd942308	-0.07233244
233	0x3d6612d0	0.056170285
234	0x3883f610	6.2923995e-05
235	0xbd21c0ad	-0.03949039
236	0x3d28acdb	0.041180473
237	0x3d93ffde	0.07226537
238	0xbcea083b	-0.028568378
239	0xbd41af30	-0.047286212
240	0xbabdf840	-0.001449354
241	0x3d31e1d2	0.04342825
242	0xbd5e3a77	-0.054254975
243	0xbd9fd2bd	-0.07803867
244	0xbd44fffa	-0.04809568
245	0xbdf2dea5	-0.11858872
246	0xbce7af8f	-0.028281955
247	0x3cbcedb2	0.02306256
248	0x3d22b8e3	0.039727103
249	0xbd6e18a4	-0.058128968
250	0x3cdc276b	0.026874265
251	0xbd780956	-0.06055578
252	0xbd168586	-0.03674843
253	0x3cdeba6e	0.027188506
254	0xbd85e5c5	-0.06537966
255	0x3d53026f	0.051515993

linear_2.bias f4 [64]
0	0xbda16338	-0.078802526
1	0x3d22fd4d	0.039792348
2	0x3d481a93	0.04885347
3	0x3cbc78a3	0.023006743
4	0x3c6ebf8d	0.014572036
5	0x3beab94f	0.007163204
6	0xbd617982	-0.05504752
7	0xbc8587bb	-0.016300073
8	0xbd6675c6	-0.05626466
9	0xbd80ab86	-0.062827155
10	0x3d47acc1	0.048748735
11	0xbe07649f	-0.13221978
12	0xbd5e970a	-0.05434326
13	0xbd11daac	-0.035608932
14	0x3d4ad072	0.049515195
15	0xbd999815	-0.074997105
16	0x3d951e63	0.072811864
17	0x3be19789	0.0068845195
18	0xbd4b1b1d	-0.049586404
19	0x3bed6923	0.0072451993
20	0x3dabe322	0.083929315
21	0x3d29b635	0.04143353
22	0xbb53f6e7	-0.003234321
23	0xbc78cd96	-0.015185734
24	0x3ce30f1b	0.027717164
25	0xbb3b527f	-0.0028583107
26	0x3c97c376	0.01852582
27	0xbe009ea5	-0.12560518
28	0x3c57620c	0.013145935
29	0xbd6bf563	-0.057607066
30	0xbce5dae4	-0.028058477
31	0x3c06b7ac	0.008222502
32	0xbd08b567	-0.033376124
33	0xbd4b3d96	-0.04961928
34	0x3cab8995	0.020939628
35	0xbd802cef	-0.062585704
36	0xbb7d2626	-0.0038627475
37	0xbd5e4ead	-0.05427425
38	0x3d0b76f6	0.034048997
39	0x3da758b0	0.08171213
40	0xbd905287	-0.07046991
41	0x3b00b4bf	0.0019638983
42	0xbd67c089	-0.0565801
43	0xbd5c25ad	-0.053746868
44	0x3d9b21a5	0.075747766
45	0xbddf0583	-0.10889723
46	0xbd889932	-0.06669845
47	0x3d164f24	0.036696568
48	0x3d7d2673	0.061804246
49	0xbb9ab736	-0.0047215475
50	0xbc48fe8d	-0.012267721
51	0x3d2ce547	0.042210843
52	0x3ded5392	0.115882054
53	0xbd4b4025	-0.04962172
54	0xbd64db57	-0.05587324
55	0x3d76ad52	0.060223885
56	0xbdda5c23	-0.10662105
57	0x3dd07eb3	0.10180416
58	0xbc39e141	-0.011345209
59	0x3d3250da	0.043534137
60	0x3a7232f6	0.0009239161
61	0x3d20c92a	0.039254345
62	0x3d6ab042	0.057297
63	0x3cf4ca01	0.02988148

linear_3.weight f4 [3, 64]
0	0xbc875dff	-0.016524313
1	0xbce32178	-0.02772592
2	0x3e05c8a0	0.13064814
3	0x3d9e1ae2	0.07719971
4	0xbc392add	-0.011301723
5	0xbe44db69	-0.19224323
6	0xbdb6a790	-0.08918679
7	0xbd2380e6	-0.03991785
8	0xbe3736ff	-0.17892073
9	0xbd8690c4	-0.065705806
10	0x3de3617b	0.11102577
11	0xbd6e5d9e	-0.05819475
12	0x3dc17b8c	0.09447393
13	0xbdc6bc96	-0.09703939
14	0xbd6bbc34	-0.05755253
15	0xbe28ef9d	-0.16497655
16	0x3e3d4df6	0.18486771
17	0x3dfd1ba8	0.12358791
18	0xbb1d5559	-0.002400717
19	0xbc093f63	-0.008376929
20	0x3e9e7522	0.3094874
21	0x3d3e4b7d	0.04645871
22	0xbc74de19	-0.01494553
23	0xbe95de66	-0.2927124
24	0x3ced3b14	0.028958835
25	0xbe05c320	-0.13062716
26	0x3e109a2f	0.14121316
27	0x3d221060	0.039566398
28	0xbde2197a	-0.110400155
29	0xbb19cb48	-0.0023467112
30	0xbdaeed13	-0.08541312
31	0xbc1ef25b	-0.009701337
32	0xbd8a950c	-0.0676671
33	0xbd917a9d	-0.07103465
34	0xbda22d12	-0.07918753
35	0xbe5f5b18	-0.21812093
36	0xbb699eef	-0.003564771
37	0xbd521794	-0.051292017
38	0x3e05f06c	0.13079995
39	0x3dde9cf3	0.108697794
40	0xbe1db965	-0.15402754
41	0x3d15c2c1	0.036562685
42	0xbd8eabec	-0.06966385
43	0xbd303666	-0.04302063
44	0x3ddc5b91	0.107596524
45	0xbe6da185	-0.23206146
46	0x3de5ae34	0.11214867
47	0x3d9b6f80	0.07589626
48	0x3d84ef3f	0.06490945
49	0xbd25c93a	-0.040475108
50	0x3b1b06dd	0.0023655214
51	0x3dfb0484	0.12256721
52	0x3e556930	0.20840907
53	0xb82d2c21	-4.1287512e-05
54	0x3c31cbe2	0.010851832
55	0x3d6212d8	0.055193752
56	0x3dca1bd3	0.09868588
57	0x3e53f95a	0.20700589
58	0x3d8ac4d7	0.067758255
59	0x3de9b8fd	0.11412237
60	0x3c73946b	0.014866929
61	0x3caffb65	0.021482179
62	0x3e3e6ff3	0.18597393
63	0x3e072dcf	0.13201068
64	0xbd6baba2	-0.05753673
65	0xbe3ec562	-0.18629983
66	0x3d9def36	0.077116415
67	0x3dc5018d	0.096194364
68	0xbc54d0b2	-0.01298921
69	0xbe885f33	-0.2663513
70	0xba26b20c	-0.00063589285
71	0xbbc350f1	-0.0059605767
72	0x3d77a131	0.06045646
73	0xbdc8ac5c	-0.097985
74	0x3e324a6d	0.17411204
75	0x3bde689e	0.0067873737
76	0xbbdd2112	-0.006748327
77	0xbde4c464	-0.11170271
78	0x3e57eace	0.21085665
79	0xbd498175	-0.049195725
80	0xbd994bdc	-0.07485172
81	0xbda489be	-0.08034085
82	0x3cc2f9c7	0.023800744
83	0x3da9b1e7	0.08285885
84	0xbdc8db7d	-0.09807489
85	0x3de31726	0.110883996
86	0x3d8a0f4f	0.06741201
87	0x3d2008ba	0.039070822
88	0x3dbd1ac5	0.092336215
89	0x3e31213f	0.17297839
90	0x3da14452	0.07874359
91	0xbd2250f3	-0.03962798
92	0xbde9cfb9	-0.11416573
93	0x3def6a2a	0.11690171
94	0x3bec4496	0.0072103245
95	0x3d93b670	0.072125316
96	0x3beac1f2	0.0071642334
97	0x3a67c0a2	0.0008840655
98	0x3d32e814	0.04367836
99	0xbe949bb8	-0.29025054
100	0xbd0eaf49	-0.034835134
101	0xbc373580	-0.011182189
102	0xbe8d64da	-0.27616006
103	0x3d816382	0.06317808
104	0x3d3c05d2	0.04590399
105	0xbc7b3852	-0.015333252
106	0x3dd11d79	0.102106996
107	0xbe7fc54e	-0.2497761
108	0xbdfaf1cc	-0.1225315
109	0xbd6b1495	-0.057392675
110	0xbcd17a04	-0.025570877
111	0x3e0d6794	0.13809043
112	0x3db454cb	0.088052355
113	0xbe4785be	-0.19484612
114	0x3ddcf535	0.10788957
115	0x3ca2694a	0.019825596
116	0x3da053ca	0.078284815
117	0x38b4c062	8.618903e-05
118	0xbde9f8a7	-0.1142438
119	0xbe3677e9	-0.1781918
120	0x3d0d31e4	0.034471408
121	0x3e1e4762	0.15456918
122	0xbe8dee44	-0.27720845
123	0xbe131938	-0.14365089
124	0xbe5f58c9	-0.21811213
125	0x3d7825f0	0.060583055
126	0xbd9a4f38	-0.07534641
127	0xbe1a762e	-0.15084144
128	0xbd1baae9	-0.03800479
129	0x3bd8405f	0.0065994705
130	0xbb640ea1	-0.0034798759
131	0x3e1ed0fa	0.15509406
132	0x3d2b61c2	0.041841276
133	0x3dbb9185	0.09158615
134	0x3b99c50c	0.0046926793
135	0xbc878d51	-0.016546877
136	0xbe79142d	-0.24324103
137	0x3d589162	0.052873023
138	0xbeae22e2	-0.34010988
139	0xbdb14cd0	-0.08657229
140	0x3cd28177	0.0256965
141	0xbdb50f8a	-0.088408545
142	0xbe421f84	-0.18957335
143	0x3d0e3d7f	0.034726616
144	0x3e0ed594	0.13948661
145	0x3b90aaf0	0.0044149086
146	0x3caf5571	0.021403046
147	0xbdee4482	-0.116341606
148	0x3dc55bc1	0.09636641
149	0x3dbd09e0	0.09230399
150	0xbdb1dd50	-0.0868479
151	0xbe180d19	-0.14848746
152	0x3c93d7ea	0.018047292
153	0x3d5f6c01	0.05454636
154	0xbd7b18fa	-0.061303116
155	0x3d80c0c9	0.06286771
156	0xbc3be4c3	-0.011468115
157	0x3d1adac0	0.037806273
158	0xbdbf8ad6	-0.09352653
159	0xbe587b87	-0.21140872
160	0x3d1e1fc9	0.03860453
161	0xbe19d4ac	-0.15022534
162	0xbd9ce657	-0.07661121
163	0x3d007ba7	0.031367924
164	0x3d2d1dd7	0.042264786
165	0x3dc51ab9	0.096242376
166	0x3dfcc0da	0.12341471
167	0xbe00a814	-0.12564117
168	0x3d355d7d	0.04427861
169	0x3dc19638	0.0945248
170	0x3d198f90	0.037490427
171	0x3e76b4f9	0.24092473
172	0x3e0960a3	0.1341577
173	0xbdb946a2	-0.09046675
174	0xbb4ae77f	-0.0030960736
175	0xbd71268a	-0.058874644
176	0xbcf3f646	-0.029780518
177	0x3da05e4c	0.07830486
178	0x3d37c1e7	0.044862654
179	0x3da03430	0.07822454
180	0xbcfde17c	-0.030991308
181	0xbb905d84	-0.004405679
182	0x3ddd38c0	0.1080184
183	0x3da52009	0.08062751
184	0x3ddc3f7f	0.107542984
185	0x3cefead7	0.029286785
186	0x3e1457d6	0.14486632
187	0x3dd3505a	0.1031806
188	0xbc8097bb	-0.01569735
189	0xbdc77cfe	-0.09740637
190	0x3e1f87d4	0.15579158
191	0x3e1e5b34	0.15464479

linear_3.bias f4 [3]
0	0x3da299bd	0.079394795
1	0xbd07d34d	-0.033160497
2	0xbc2eaca7	-0.010661281
