Snake-Game-Player/model/model.pth (torch, 88308 bytes, 6 tensors)

linear_1.weight f4 [256, 18]
0	0x3e89f675	0.26945844
1	0xbeaed226	-0.34144706
2	0xbe0b045e	-0.13575885
3	0xbd170a60	-0.03687513
4	0xbd944712	-0.07240118
5	0xbe8d3bbd	-0.2758464
6	0x3eb86619	0.36015394
7	0x3ee13dab	0.4399236
8	0x3ca378d7	0.019955082
9	0x3d6303d5	0.055423576
10	0xbce1fe75	-0.027587155
11	0x3c93209c	0.017959885
12	0xbde22270	-0.11041725
13	0xbe627a8e	-0.22117063
14	0xbe7991fd	-0.24372096
15	0xbde49fc6	-0.11163287
16	0x3cd8016b	0.026367864
17	0x3e77a8b4	0.24185449
18	0x3da2f963	0.07957723
19	0x3df8eb75	0.12154285
20	0xbe8d6c50	-0.27621698
21	0x3c5640ad	0.013076943
22	0xbd7b2af4	-0.06132026
23	0x3c5147cb	0.012773464
24	0x3d9bf57d	0.076151825
25	0xbdfffc75	-0.12499324
26	0x3db47b8c	0.08812627
27	0x3cee86bf	0.029116986
28	0xbeb1d6e4	-0.3473426
29	0x3e86706f	0.26257655
30	0xbf4a6dd3	-0.7907383
31	0x3f01d825	0.50720435
32	0xbf221608	-0.63314867
33	0x3e9ee81a	0.31036454
34	0x3e11a788	0.14224064
35	0xbf08f99a	-0.5350586
36	0xbe3c0e9e	-0.18364951
37	0xbccc6528	-0.024950579
38	0x3e80509d	0.25061503
39	0x3ea796c2	0.32732207
40	0x3d039df5	0.03213306
41	0x3bf96a4e	0.0076115495
42	0xbdb94b4d	-0.090475656
43	0xbd4df72b	-0.050284546
44	0x3daf453f	0.085581295
45	0x3d91ca42	0.07118656
46	0x3ef550e5	0.4791328
47	0xbecc425c	-0.39894378
48	0x3df54758	0.11976498
49	0xbe9888d9	-0.29791906
50	0x3afbbdb6	0.0019206319
51	0xbefcd93e	-0.49384493
52	0x3eb2b658	0.34904742
53	0xbf44d99a	-0.76894534
54	0x3d65ca4d	0.056101132
55	0xbf1a725f	-0.60330766
56	0xbe07ad89	-0.13249792
57	0x3f272052	0.6528369
58	0x3d4ba966	0.049722098
59	0xbd196ec4	-0.03745915
60	0x3e93ab05	0.28841415
61	0x3e56394c	0.20920295
62	0x3de5488f	0.1119548
63	0x3dbf2b5e	0.093344435
64	0x3e6debd8	0.23234499
65	0x3e81e36e	0.25368828
66	0x3e21d9c2	0.15805724
67	0xbd67c583	-0.056584846
68	0xbe8b4e36	-0.27208108
69	0xbe2df58c	-0.169882
70	0xbe111ffc	-0.14172357
71	0xbe6f2263	-0.23352961
72	0x3ec5c66b	0.38627943
73	0x3e998c17	0.29989693
74	0x3f25a61d	0.64706594
75	0x3ee1eb2a	0.44124728
76	0x3e58fc5e	0.2119002
77	0xbdbc44d7	-0.09192818
78	0xbd390c1d	-0.045177568
79	0x3db0519d	0.086093165
80	0xbe6aa312	-0.22913769
81	0xbe1de644	-0.1541987
82	0xbe132c08	-0.14372265
83	0xbe1b732e	-0.15180656
84	0xbe743664	-0.23848873
85	0xbe8fc9ed	-0.28083745
86	0x3e4dcde1	0.20098068
87	0x3e89f3c4	0.2694379
88	0x3e108b7d	0.1411571
89	0x3dc2d7d2	0.09513821
90	0x3ec92ae4	0.39290535
91	0x3d38b28f	0.04509216
92	0x3f12ac5b	0.57294244
93	0xbca0d908	-0.019634739
94	0xbdcb4800	-0.09925842
95	0x3e116e56	0.14202246
96	0x3d0f0443	0.034916174
97	0xbd26d0dc	-0.040726528
98	0xbd027623	-0.031850945
99	0xbe2ed4d5	-0.17073376
100	0xbef45924	-0.4772426
101	0x3e9e4e87	0.30919287
102	0xbe8ab854	-0.27093756
103	0x3e09d8fc	0.13461679
104	0x3ef63ac9	0.48091725
105	0xbeb162e5	-0.34645763
106	0xbde2f7d7	-0.11082428
107	0x3e2d3f64	0.16918713
108	0x3e3f06de	0.18654963
109	0x3ef94853	0.48687991
110	0x3e11473d	0.14187331
111	0xbe010a05	-0.12601478
112	0x3d1ae630	0.03781718
113	0xbde45579	-0.11149115
114	0x3c07ce32	0.008288907
115	0x3e4215f5	0.18953688
116	0x3d9f1ac9	0.07768781
117	0x3d9553ae	0.07291351
118	0xbea6ac01	-0.32553104
119	0xbdfaf85c	-0.12254402
120	0xbe491044	-0.19635111
121	0x3b22a427	0.002481708
122	0xbe6e0680	-0.23244667
123	0xbd6cf63d	-0.05785202
124	0xbe36509f	-0.17804192
125	0xbe9c8907	-0.30573294
126	0xbe7da84a	-0.24771228
127	0x3f031d98	0.5121703
128	0xbd781325	-0.060565133
129	0x3ce47a05	0.027890215
130	0xbdbfa421	-0.09357477
131	0xbe5e74a4	-0.21724182
132	0x3deea191	0.1165191
133	0x3d8d113f	0.06888055
134	0xbdc6c45d	-0.09705422
135	0x3e151db3	0.1456211
136	0x3e40b310	0.18818307
137	0xbec354f1	-0.38150743
138	0xbc8ca9f9	-0.017170893
139	0xbe495d04	-0.19664389
140	0xbe5d021e	-0.21582839
141	0xbe3b4944	-0.18289667
142	0xbe3fafdf	-0.18719433
143	0x3e7f493c	0.2493028
144	0xbf054f10	-0.52073765
145	0x3ec10c8b	0.37704882
146	0x3e8e2682	0.27763754
147	0x3dc10c23	0.09426143
148	0xbc0ebb04	-0.00871158
149	0xbd63f028	-0.055648953
150	0x3e5eb3c7	0.21748267
151	0x3d2035d8	0.03911385
152	0xbc85083e	-0.016239282
153	0x3c665b61	0.014059872
154	0xbdceed2d	-0.101038314
155	0xbef95815	-0.48700014
156	0xbd81baa4	-0.06334427
157	0xbe2586a9	-0.1616465
158	0xbeac3147	-0.33631346
159	0x3d3c01ec	0.04590027
160	0x3d205127	0.039139893
161	0x3e2ffe9f	0.17186974
162	0x3e0607b7	0.1308888
163	0xbe9ddff7	-0.30834934
164	0x3f1c6908	0.61097765
165	0x3db1be83	0.08678915
166	0xbe0fb50a	-0.14033905
167	0x3df14a7d	0.11781786
168	0x3c321936	0.010870269
169	0x3e934861	0.28766158
170	0x3d8b936c	0.06815228
171	0x3d478430	0.04871005
172	0x3d93fac5	0.07225565
173	0xbee820fd	-0.45337668
174	0xbdf9d25b	-0.12198325
175	0xbe6e9997	-0.23300777
176	0xbe97b19a	-0.29627687
177	0x3e50834a	0.20362583
178	0x3e8bd181	0.27308276
179	0xbe441268	-0.19147646
180	0x3de92b10	0.11385167
181	0x3f29a367	0.6626496
182	0x3f29b119	0.66285855
183	0x3dc2c86a	0.09510882
184	0xbd752fbd	-0.05985998
185	0x3e7ebcb8	0.24876678
186	0x3de394eb	0.11112388
187	0x3eaf86a8	0.34282422
188	0x3daac893	0.08339038
189	0x3e35146b	0.1768357
190	0xbd49d66d	-0.049276758
191	0xbe761c15	-0.2403415
192	0xbe0b23f6	-0.13587937
193	0xbe1db63b	-0.15401547
194	0xbe249345	-0.16071804
195	0xbc966fba	-0.018363822
196	0xbc88cfa9	-0.016700583
197	0x3cc31e57	0.023818178
198	0x3edac03b	0.42724785
199	0x3f0eb56f	0.55745596
200	0xbc9a2dbc	-0.018820636
201	0x3e1ba940	0.15201283
202	0x3e14835f	0.14503239
203	0x3ccc52c0	0.024941802
204	0x3e82af19	0.25524214
205	0x3dba33af	0.09091889
206	0xbe01a828	-0.12661803
207	0x3e0485ba	0.12941638
208	0xbdd23e09	-0.102657385
209	0xbecef1e5	-0.40418926
210	0x3e1af44f	0.15132259
211	0xbef77143	-0.483286
212	0xbdf91e8a	-0.12164028
213	0xbe178dee	-0.14800236
214	0xbe94558a	-0.2897151
215	0x3eb12001	0.3459473
216	0x3e6ad98a	0.22934547
217	0xbd1277d4	-0.03575881
218	0xbf0704ea	-0.52741873
219	0xbd9ecd68	-0.07754022
220	0x3e0f84c6	0.14015493
221	0x3db25cc2	0.087090984
222	0x3df47474	0.11936274
223	0xbd51e20c	-0.051240966
224	0x3e8a9fba	0.27074987
225	0xbd781413	-0.06056602
226	0xbeb1ede5	-0.34751812
227	0xbea493b4	-0.3214394
228	0x3e39466f	0.18093275
229	0x3ed23ccc	0.4106201
230	0x3ecf2f22	0.40465647
231	0x3e535545	0.20637996
232	0xbe741184	-0.23834807
233	0xbef3e3ca	-0.47634727
234	0x3de8f249	0.11374337
235	0xbe87b4c2	-0.26505095
236	0x3e806a2a	0.25080997
237	0x3e6fd871	0.2342241
238	0xbd905b4a	-0.07048662
239	0xbe226016	-0.15856966
240	0x3e8794fc	0.26480854
241	0x3e787a96	0.24265513
242	0xbd99a4b0	-0.07502115
243	0x3d044d65	0.03230037
244	0xbdab5fb7	-0.083678655
245	0xbe2988af	-0.16556047
246	0xbf24d6d0	-0.6439028
247	0x3ee399db	0.4445332
248	0x3e045bf8	0.12925708
249	0xbe5c9088	-0.2153951
250	0x3efd26ba	0.4944361
251	0xbf0aaa24	-0.54165864
252	0x3e29acd5	0.16569836
253	0x3ec67a5d	0.3876523
254	0x3f294f95	0.6613706
255	0xbd029971	-0.031884614

linear_1.bias f4 [256]
0	0xbca5538d	-0.020181442
1	0x3e0c999e	0.13730475
2	0xbd8e6d36	-0.06954424
3	0x3e3ca985	0.18424042
4	0x3de138d8	0.1099717
5	0xbe0c310a	-0.13690582
6	0xbe97b3d3	-0.29629382
7	0x3d4f8df4	0.050672486
8	0x3ddd60b5	0.10809461
9	0xbbb1be93	-0.0054243295
10	0xbefd9530	-0.49527884
11	0xbd549726	-0.05190196
12	0xbdb07a00	-0.0861702
13	0xbe75dcff	-0.24010085
14	0xbd47379f	-0.04863703
15	0x3d7cdbce	0.06173306
16	0x3d8dd24f	0.06924879
17	0xbe824367	-0.2544205
18	0x3dd5ede1	0.104457624
19	0x3dde01cc	0.108401865
20	0xbe0ead98	-0.13933408
21	0x3d5b1a53	0.0534919
22	0x3e167b12	0.14695385
23	0x3dece853	0.1156775
24	0x3e2820bc	0.16418737
25	0xbdf5f683	-0.12009909
26	0xbd433151	-0.047654454
27	0xbe04a845	-0.12954815
28	0x3c02a1ae	0.007973118
29	0xbb9c82e2	-0.0047763446
30	0x3ddd194a	0.10795839
31	0xbe26b3ae	-0.1627948
32	0x3d278e4f	0.0409072
33	0xbe00032c	-0.1250121
34	0x3e1dcbd1	0.15409781
35	0x3e279487	0.16365252
36	0x3c82a2b9	0.015946733
37	0x3de43b7e	0.1114416
38	0xbdb7d08d	-0.08975325
39	0x3e8a447b	0.2700537
40	0x3e03bbfd	0.1286468
41	0xbe3a64ca	-0.1820251
42	0xbdda55ef	-0.10660922
43	0xbc8aa309	-0.016923444
44	0xbd79cc09	-0.0609856
45	0xbe15a351	-0.14613082
46	0xbddf8cda	-0.10915537
47	0xbe52b1f1	-0.20575692
48	0x3e847e32	0.2587753
49	0x3e5c3247	0.21503554
50	0x3df353c5	0.11881212
51	0xbe832357	-0.256129
52	0xbc888606	-0.01666547
53	0xbd04adc3	-0.032392275
54	0xbd8888ad	-0.06666694
55	0xbd86138c	-0.06546697
56	0x3e2be75d	0.16787477
57	0x3d0afb22	0.033930905
58	0xbc83e260	-0.016099155
59	0x3e491dd8	0.1964029
60	0xbd7f22bc	-0.062288985
61	0x3dc3b893	0.09556689
62	0x3e119d24	0.142201
63	0x3e126b44	0.14298731
64	0xbd4f5e66	-0.050627135
65	0xbe1a2f1f	-0.15057038
66	0xbe6cd835	-0.23129351
67	0xbdd94fa2	-0.10610892
68	0xbe6b47b3	-0.2297657
69	0x3da542c4	0.08069375
70	0xbda293a1	-0.07938314
71	0xbe5ea526	-0.21742687
72	0x39167ba8	0.0001435118
73	0x3dc44ab1	0.09584559
74	0xbe16dbb8	-0.14732254
75	0xbcf72868	-0.030170634
76	0x3e25bf47	0.16186248
77	0x3dae46d5	0.08509604
78	0x3d9c6954	0.07637277
79	0xbef5eb58	-0.48031116
80	0xbd690efc	-0.056899056
81	0x3cb4f728	0.02209051
82	0x3d6ac9ec	0.057321474
83	0x3d03ba6e	0.032160215
84	0x3d3cf743	0.046134245
85	0xbe2af22d	-0.16693945
86	0x3dadb955	0.08482615
87	0xbc3f0f88	-0.011661418
88	0xbe3a506e	-0.18194744
89	0xbe2844e8	-0.16432536
90	0x3e8632cd	0.26210633
91	0x3d5627f8	0.05228421
92	0xbe8bd6b2	-0.27312237
93	0x3c645f2f	0.013938709
94	0x3d907ad8	0.070546806
95	0xbd3f8ca7	-0.046764996
96	0xbe4ba09e	-0.1988549
97	0x3df8ad3e	0.12142418
98	0xbe62e030	-0.22155833
99	0xbd5e2813	-0.054237437
100	0x3e21be26	0.15795192
101	0xbe7a1176	-0.24420723
102	0xbe44db52	-0.19224289
103	0xbe0534ff	-0.13008498
104	0xbe109383	-0.14118771
105	0xbe7ba98b	-0.24576394
106	0xbe4c68bf	-0.19961832
107	0xbe860153	-0.26172885
108	0xbe03460a	-0.12819687
109	0xbe1d7711	-0.15377451
110	0x3daff7c1	0.08592177
111	0xbdad9c1f	-0.08477043
112	0xbe043994	-0.1291259
113	0xbe136a26	-0.14395961
114	0x3d1c14bc	0.03810571
115	0xbe2ae801	-0.16690065
116	0x3e0918c1	0.13388349
117	0x3e4f4161	0.20239784
118	0xbe35fc75	-0.17772086
119	0xbe3c8bdb	-0.18412726
120	0xbe125866	-0.14291534
121	0xbdead92a	-0.11467202
122	0xbe22669c	-0.15859455
123	0xbda1a372	-0.07892503
124	0xbc896886	-0.016773473
125	0xbe3c0014	-0.18359405
126	0xbdeb641e	-0.11493705
127	0x3db14ed7	0.08657616
128	0x3e9c3ebe	0.30516618
129	0xbdea9c13	-0.1145555
130	0x3e4c4c33	0.19950943
131	0xbc4b07fb	-0.012392039
132	0xbe1e431c	-0.15455288
133	0x3e0d7412	0.13813809
134	0xbdbfa0d5	-0.09356848
135	0xbe735954	-0.23764545
136	0x3e3898f2	0.18027094
137	0x3c4bb821	0.0124340365
138	0x3df6f5f2	0.12058629
139	0x3d8504a0	0.06495023
140	0xbc16b461	-0.009198279
141	0x3da84ca6	0.082177445
142	0xbe8adf65	-0.27123562
143	0x3d280c4c	0.041027352
144	0xbe74ae21	-0.2389455
145	0xbd0b4526	-0.034001492
146	0xbe44f816	-0.19235262
147	0xbc852f5a	-0.01625793
148	0xbebc2b20	-0.36751652
149	0xbd1e7324	-0.038684025
150	0xbdb038c7	-0.086045794
151	0xbe54aa8b	-0.20768182
152	0x3e0d48a7	0.13797246
153	0x3e43d6e9	0.1912495
154	0xbd1dd927	-0.03853717
155	0xbbf10746	-0.0073556034
156	0x3db359fb	0.08757397
157	0x3d1a3c31	0.03765506
158	0xbdaa155b	-0.083048545
159	0xbe3ed514	-0.1863597
160	0x3e29522f	0.16535257
161	0xbe681a92	-0.22666386
162	0xbe17b28b	-0.14814202
163	0xbdcdec6e	-0.10054861
164	0x3c43ddd6	0.011954745
165	0xbe5d1b56	-0.21592459
166	0xbe682bc6	-0.22672948
167	0xbcefc7ba	-0.029270042
168	0xbda179bf	-0.07884549
169	0xbe414569	-0.18874134
170	0x3d1c9d50	0.038235962
171	0x3a016c08	0.00049370574
172	0x3d912d2a	0.070886925
173	0xbdb53d4b	-0.08849581
174	0xbd986e33	-0.07442894
175	0xbdbc95a6	-0.09208231
176	0xbe9cfa63	-0.3065978
177	0x3e1e92c6	0.15485677
178	0xbd21692a	-0.039406933
179	0xbe705501	-0.23469926
180	0xbdc9775e	-0.098372206
181	0x3e00d8ee	0.12582752
182	0x3ddb72ea	0.107152775
183	0xbd9c0c14	-0.07619491
184	0xbdbe4a77	-0.09291547
185	0x3d1a7af3	0.03771491
186	0xbe865a4c	-0.26240766
187	0xbe1a149e	-0.15046927
188	0xbded5445	-0.11588339
189	0xbe3f3eb1	-0.18676259
190	0xbe0aa2d9	-0.13538684
191	0x3e3b66f3	0.18300991
192	0xbd37c302	-0.04486371
193	0x3d330236	0.04370328
194	0xbbcdd311	-0.0062812646
195	0xbe3c9c81	-0.18419077
196	0x3e11d490	0.14241242
197	0x3cf05503	0.029337412
198	0x3db9145c	0.09037086
199	0xbd3b6255	-0.045748074
200	0xbe381238	-0.179757
201	0xbe65716d	-0.2240655
202	0xbe81678f	-0.2527432
203	0xbda0211f	-0.07818817
204	0xbe65816a	-0.22412649
205	0x3c9e5308	0.019326702
206	0xbc00ed4e	-0.007869078
207	0xbe2bb0c3	-0.16766648
208	0x3b09262f	0.00209273
209	0xbd97e585	-0.07416824
210	0xbd66573b	-0.056235533
211	0xbdba0ea9	-0.090848275
212	0xbe8b9de0	-0.27268887
213	0x3c861463	0.016367143
214	0xbdcb2101	-0.09918404
215	0xbdf136d5	-0.117780365
216	0x3e4d508d	0.20050259
217	0xba70fe36	-0.0009193154
218	0x3dddbe9e	0.10827373
219	0xbe5950ef	-0.2122228
220	0xbd4ca097	-0.049957838
221	0xbdc8a777	-0.097975664
222	0xbe6aa692	-0.22915104
223	0x3dc2830f	0.09497654
224	0xbcf63bc4	-0.030057795
225	0xbdb49ed1	-0.08819354
226	0x3e8ed769	0.2789872
227	0xbdeaee20	-0.114712
228	0xbdb94dcd	-0.090480424
229	0x3e8ad502	0.27115637
230	0x3c32c6f0	0.010911688
231	0xbdb3e8f6	-0.08784668
232	0x3dc084bf	0.09400319
233	0xbe8e1a6c	-0.27754533
234	0xbdcc31dd	-0.09970448
235	0x3d9ba988	0.07600695
236	0x3dbda869	0.09260637
237	0x3d785d56	0.060635887
238	0x3d5e9fc7	0.054351594
239	0x3dc4d23e	0.09610413
240	0x3e2f8a77	0.17142664
241	0x3d9fa450	0.07795012
242	0xbe3b690d	-0.18301792
243	0xbc00dfe6	-0.007865882
244	0xbe040694	-0.12893134
245	0xbd6d5ef9	-0.0579519
246	0xbd5b8303	-0.05359174
247	0x3ec39894	0.38202345
248	0x3d0b91be	0.034074537
249	0x3d423ae7	0.047419455
250	0x3e01d5e1	0.12679245
251	0x3e890bd4	0.26766837
252	0xbe165686	-0.14681444
253	0xbe0313d4	-0.12800533
254	0x3e9fa4ad	0.31180325
255	0x3e140228	0.14453948

linear_2.weight f4 [64, 256]
0	0xbd87e6ad	-0.06635795
1	0x3f068807	0.5255131
2	0xbde09b8b	-0.109671675
3	0xbd0c2eda	-0.03422437
4	0xbd7a0b70	-0.061046064
5	0xbea49f32	-0.32152706
6	0x3dc06db1	0.09395922
7	0x3eaf6532	0.34256893
8	0x3dee3884	0.11631873
9	0xbe8cfb1f	-0.2753534
10	0x3de22518	0.11042231
11	0x3e598e8b	0.21245782
12	0x3e495cb8	0.19664276
13	0xbeb107c0	-0.34576225
14	0xbd7339fa	-0.059381463
15	0x3ea6e628	0.3259747
16	0xbc601e0d	-0.01367904
17	0x3e583f10	0.21117806
18	0xbe0661bf	-0.13123225
19	0x3cc34670	0.023837298
20	0xbeaf1ee2	-0.3420325
21	0xbdd9444b	-0.10608729
22	0x3d4cc8ea	0.049996294
23	0xbe5d5932	-0.21616057
24	0x3ee5fc18	0.44918895
25	0xbe1d7f6e	-0.15380642
26	0x3ee9c3ce	0.456572
27	0xbd72254a	-0.059117593
28	0x3e847496	0.25870198
29	0xbec52281	-0.38502887
30	0x3e969824	0.2941295
31	0x3c4d319c	0.012524035
32	0x3ee89f30	0.4543395
33	0x3ce2e7c3	0.027698403
34	0xbcac5eca	-0.021041293
35	0xbb0dd4e2	-0.002164178
36	0xbd84b93f	-0.064806454
37	0xbe2951f3	-0.16535167
38	0xbf2202c0	-0.63285446
39	0x3dc55aec	0.096364826
40	0xbdc369bc	-0.095416516
41	0x3ad563cc	0.0016280352
42	0x3d748439	0.05969641
43	0xbece51ca	-0.40296775
44	0xbd99eaeb	-0.0751551
45	0x3d94c43b	0.072639905
46	0xbe8ec717	-0.27886268
47	0xbef52b90	-0.47884798
48	0x3e8431cc	0.25819242
49	0x3ec17014	0.3778082
50	0x3e842921	0.2581263
51	0x3e2fe81e	0.1717839
52	0x3e967276	0.29384202
53	0xbeaba241	-0.33522227
54	0x3ef5c82b	0.4800428
55	0x3ea28e3b	0.31749138
56	0x3e182ec5	0.14861591
57	0xbe50f591	-0.20406176
58	0x3e48558e	0.19563887
59	0x3e8e9dcf	0.27854773
60	0xbd76c1e8	-0.060243517
61	0xbd38ea5d	-0.04514538
62	0xbe44f27a	-0.19233122
63	0x399af55d	0.0002955598
64	0x3ee7c623	0.45268354
65	0xbe0f4e2f	-0.13994668
66	0xbe3706bb	-0.17873661
67	0xbe9755dd	-0.29557696
68	0xbea01e5a	-0.31273156
69	0xbe2c3734	-0.16817933
70	0x3e8261d0	0.2546525
71	0x3e7e869f	0.24856041
72	0xbe0e2148	-0.13879883
73	0xbe703cfb	-0.23460762
74	0x3c1f5151	0.009723977
75	0x3de05bee	0.10955034
76	0x3e571aac	0.21006268
77	0x3ecc82c6	0.39943522
78	0x3e9bd29c	0.3043412
79	0xbe3c2757	-0.18374382
80	0x3e962c39	0.29330614
81	0xbe895b87	-0.26827642
82	0xbec8097c	-0.39069736
83	0xbe02cf8e	-0.12774488
84	0x3df55594	0.11979213
85	0xbe31517f	-0.17316245
86	0x3e8ac659	0.27104452
87	0x3eb452d7	0.35219452
88	0x3de8b107	0.1136189
89	0x3e5dffe3	0.21679644
90	0xbcd1a2df	-0.025590358
91	0xbd0034a0	-0.031300187
92	0x3e564b70	0.20927215
93	0x3eb77a6c	0.35835588
94	0xbea841bd	-0.32862654
95	0x3e7dd07c	0.24786562
96	0xbead0051	-0.33789304
97	0x3d619aa6	0.055079125
98	0x3d43ddaa	0.047818817
99	0x3e057d57	0.13036095
100	0xbe9301e5	-0.28712383
101	0xbcfccb9d	-0.03085881
102	0x3db273fb	0.08713528
103	0x3e1cd0ca	0.15314022
104	0x3e7a6198	0.24451292
105	0xbe767a36	-0.24070057
106	0xbdc7a361	-0.09747959
107	0xbe3c5a8e	-0.18393919
108	0x3e66ac5e	0.2252669
109	0x3e27f12b	0.16400592
110	0x3ea58a0e	0.3233189
111	0xbe6e03b0	-0.23243594
112	0xbe99dac2	-0.3004971
113	0x3e95d8db	0.2926701
114	0x3e1c0434	0.15235978
115	0x3e896577	0.26835224
116	0x3c8db2b2	0.017297123
117	0xbdae55aa	-0.08512433
118	0x3cf408ab	0.02978929
119	0x3dc6c893	0.09706225
120	0x3e82a5be	0.25517076
121	0x3e4d9b71	0.20078827
122	0x3b5f6209	0.0034085533
123	0x3e5e4683	0.21706586
124	0xbd53ef9f	-0.051742192
125	0xbe489a55	-0.19590123
126	0x3e8640df	0.26221368
127	0x3eaad4a4	0.33365357
128	0xbe361f14	-0.17785293
129	0xbe1cd062	-0.15313867
130	0x3ef14c64	0.47128594
131	0xbd102a8e	-0.035196833
132	0x3e35fe6c	0.17772835
133	0x3d2eea90	0.042704165
134	0xbdaa09b4	-0.08302632
135	0xbe4c2603	-0.19936375
136	0xbdcc7b00	-0.09984398
137	0x3ee96f12	0.45592552
138	0x3e850258	0.2597835
139	0xbd042a1e	-0.03226673
140	0x3ec327e7	0.3811638
141	0x3f06b46c	0.5261905
142	0x3e44a8eb	0.19205062
143	0x3e8f88a7	0.28033945
144	0xbe071021	-0.13189746
145	0xbcf465fd	-0.029833788
146	0xbea0bc4f	-0.31393668
147	0x3c80d8e2	0.015728418
148	0x3e8843b9	0.26614168
149	0xbe061b6e	-0.13096401
150	0x3df89776	0.12138264
151	0x3c0f0ab6	0.008730581
152	0xbe3177f6	-0.17330918
153	0x3e2c44be	0.16823098
154	0x3df67eb5	0.12035886
155	0x3ec7719d	0.38953868
156	0x3d10b5ac	0.035329506
157	0xbe4a99d9	-0.1978525
158	0x3d6bc3ba	0.057559706
159	0x3c698cb8	0.014254741
160	0xbc0f7734	-0.008756448
161	0xbe5ce27a	-0.21570769
162	0x3e7afb1b	0.24509852
163	0xbe978816	-0.29596013
164	0x3cacc1de	0.021088537
165	0xbd0c5dd9	-0.034269188
166	0x3d83d4d1	0.06437076
167	0xbee9ca01	-0.4566193
168	0x3e844f56	0.2584178
169	0xbd8924b5	-0.066964544
170	0x3f09ee44	0.5387919
171	0x3da0dbf2	0.07854451
172	0x3dcc325d	0.099705435
173	0xbe31b91a	-0.17355767
174	0xbe88b76c	-0.2670244
175	0xbd9d19ef	-0.07670962
176	0x3e941ccf	0.2892823
177	0x3eb066ad	0.34453335
178	0x3e08b88c	0.13351649
179	0x3ce45465	0.027872274
180	0xb9b5b160	-0.00034655165
181	0x3e5b759b	0.21431582
182	0x3d9d0343	0.07666638
183	0x3dc49523	0.09598758
184	0xbeb892dd	-0.36049548
185	0x3ecfa37a	0.4055441
186	0xbe7529c2	-0.2394171
187	0x3eb7041b	0.3574532
188	0x3c6258c7	0.0138151115
189	0xbd7ac822	-0.061226018
190	0xbed12bf6	-0.40853852
191	0x3e97430c	0.2954334
192	0x3ec7cd7a	0.39023954
193	0x3d931309	0.07181365
194	0x3ec2aca1	0.3802233
195	0x3e8f26dc	0.27959335
196	0xbf053a6c	-0.5204227
197	0x3cc00280	0.023438692
198	0xbe04e06d	-0.12976237
199	0x3d8e44e1	0.06946731
200	0x3dc6a864	0.09700087
201	0xbd8205d8	-0.06348771
202	0xbd3df2a5	-0.046373982
203	0xbdfc4ffe	-0.12319945
204	0xbe8e1430	-0.27749777
205	0x3e301df4	0.17198926
206	0xbce35a8b	-0.027753135
207	0xbe63a90e	-0.22232458
208	0x3ead5f2f	0.33861682
209	0xbe4deb96	-0.201094
210	0x3e0ef878	0.13961971
211	0xbdac81ed	-0.08423219
212	0x3da7fe3e	0.0820279
213	0x3e63cc6a	0.22245947
214	0xbe335eb1	-0.1751659
215	0x3e00072f	0.1250274
216	0x3e004079	0.12524594
217	0xbe848bb7	-0.25887844
218	0x3bb9dab0	0.0056718215
219	0x3e272c2f	0.16325448
220	0xbe7c92d1	-0.24665381
221	0x3d947141	0.07248164
222	0xbe77e314	-0.24207717
223	0x3c240d34	0.0100129135
224	0xbed7b963	-0.42133626
225	0xbd74e479	-0.0597882
226	0xbe35185b	-0.17685072
227	0xbeaeedec	-0.34165895
228	0xbea7e45e	-0.32791418
229	0x3c2583eb	0.0101022525
230	0xbe07276a	-0.13198629
231	0x3da5dc05	0.08098606
232	0xbcbfa7a1	-0.023395361
233	0xbc7a71a8	-0.015285887
234	0x3e286fd9	0.16448916
235	0x3dbc6180	0.09198284
236	0xbe10464f	-0.1408932
237	0x3ef37ab8	0.47554564
238	0x3e608a9e	0.21927878
239	0xbe63dec2	-0.22252944
240	0x3e71d61d	0.23616834
241	0xbf1b91b6	-0.6076921
242	0xbe1079ca	-0.14108959
243	0x3eb2891e	0.34870237
244	0x3e7094db	0.23494284
245	0x3e5b604b	0.21423452
246	0xbd8022fc	-0.06256673
247	0x3ea0ed5f	0.314311
248	0x3dc4b258	0.09604329
249	0xbe5ebb3c	-0.21751112
250	0x3e1bd824	0.1521917
251	0xbe29e26d	-0.16590281
252	0x3d55119d	0.05201875
253	0x3e9fecb7	0.31235287
254	0x3e0c9564	0.13728863
255	0x3e834f82	0.25646597

linear_2.bias f4 [64]
0	0x3e33fa45	0.17575939
1	0x3e77bcf0	0.24193168
2	0xbd8c615e	-0.06854509
3	0x3e47c548	0.1950885
4	0x3cc0de5f	0.023543535
5	0xbca867ea	-0.020557363
6	0xbdbe9de8	-0.09307462
7	0x3e0c1689	0.13680471
8	0xbbf9ec7a	-0.007627067
9	0x3debdb4f	0.11516439
10	0x3daf78ee	0.085679874
11	0xbca6aee4	-0.020347066
12	0xbc9651f3	-0.018349623
13	0x3ca62d22	0.020285193
14	0x3e11d425	0.14241083
15	0xbd6ff7bd	-0.05858587
16	0x3e7455e7	0.23860894
17	0x3ba8d368	0.0051521547
18	0x3c238e60	0.009982675
19	0x3e00812e	0.12549278
20	0xbaec2dfc	-0.0018019076
21	0x3e00a845	0.1256419
22	0xbd50f3ff	-0.051013943
23	0x3c9be9e3	0.019032424
24	0xbd3f17fd	-0.046653736
25	0xbc183ac8	-0.009291358
26	0x3df1e173	0.11810579
27	0x3c41a6e1	0.011819572
28	0xbca67893	-0.020321166
29	0xbdc5b3b3	-0.096534155
30	0xbd40919f	-0.047013875
31	0xbb268417	-0.0025408322
32	0x3c2f4c85	0.010699396
33	0x3da107f3	0.07862844
34	0xbd921276	-0.071324274
35	0x3dd0f3c5	0.10202745
36	0x3e45dde9	0.19322933
37	0x3c44b70a	0.012006531
38	0xbe0cbce6	-0.13743934
39	0xbde031cf	-0.10947
40	0x3e847d8b	0.25877032
41	0xbd5b0571	-0.053471986
42	0x3dcd2547	0.10016876
43	0xbd175831	-0.03694934
44	0x3ced4ace	0.028966334
45	0x3da87627	0.08225661
46	0xbdc9b589	-0.09849078
47	0x3d898aae	0.06715904
48	0xbcfed680	-0.031108141
49	0x3abdd7b6	0.0014483843
50	0x3da70c91	0.08156694
51	0x3d0558fc	0.032555565
52	0x3d345d0a	0.04403404
53	0x3e241bfd	0.16026302
54	0x3c543fc3	0.012954655
55	0xbd9623ef	-0.073310725
56	0xbcd79fa2	-0.026321236
57	0x3dbc9887	0.0920878
58	0x3dca4b61	0.09877659
59	0xbccc405a	-0.024933029
60	0x3ceb065c	0.028689556
61	0x3b57d332	0.0032932279
62	0xbe32d17d	-0.17462726
63	0xbdf812d5	-0.12112967

linear_3.weight f4 [3, 64]
0	0x3d8d7362	0.06906773
1	0x3f0b7dfe	0.54489124
2	0x3d2f0446	0.042728685
3	0x3f0bf6ff	0.5467376
4	0x3c53b006	0.012920385
5	0x3d908c1a	0.07057972
6	0x3af03faf	0.0018329526
7	0x3b33f926	0.0027461736
8	0xbf271627	-0.65268177
9	0x3e82c675	0.25542036
10	0x3e880e5c	0.26573455
11	0xbd2c47ce	-0.042060666
12	0xbe9bed0b	-0.30454287
13	0x3da16c7a	0.078820184
14	0x3e9d858d	0.30765954
15	0x3dd33e4c	0.103146166
16	0x3e7e20fc	0.2481727
17	0xbe3813e3	-0.17976336
18	0xbeb8396e	-0.35981315
19	0x3da58f9f	0.08084034
20	0x3d0b802b	0.034057777
21	0xbcfe1d4a	-0.031019825
22	0xbc7c854b	-0.015412639
23	0xbeb25733	-0.34832153
24	0x3d3da681	0.04630137
25	0xbf1905e6	-0.59774625
26	0x3e6cec27	0.2313696
27	0xbf05552d	-0.5208309
28	0xbed3627e	-0.4128608
29	0xbd64c9f9	-0.05585668
30	0xbeda50be	-0.42639726
31	0x3c85dbb2	0.01634011
32	0x3d99d4cf	0.07511293
33	0xbd83aecd	-0.06429825
34	0xbdb1a521	-0.08674074
35	0x3e57fd4e	0.21092722
36	0x3e5cd4d2	0.2156556
37	0xbd7932d6	-0.060839497
38	0xbcb4d4f0	-0.022074193
39	0xbf071efa	-0.5278164
40	0x3ebebd18	0.37253642
41	0xbdb9e51e	-0.09076904
42	0xbe1f3827	-0.15548764
43	0x3cf8d029	0.030372696
44	0xbd01bb6f	-0.03167289
45	0x3da22435	0.07917062
46	0xbd3bbd31	-0.045834724
47	0xbe54811a	-0.20752373
48	0x3d8ba86f	0.068192355
49	0xbe595d79	-0.21227063
50	0x3e151482	0.14558604
51	0x3e574bf0	0.21025062
52	0xbed81e19	-0.42210463
53	0x3d8c2372	0.06842698
54	0xbe31a8cd	-0.17349549
55	0x3d08dd99	0.033414457
56	0xbe6ed954	-0.23325092
57	0x3d44b17c	0.048020825
58	0xbd8d57b8	-0.06901497
59	0x3c492e00	0.012279034
60	0xbcae5658	-0.021281406
61	0x3d4b572f	0.04964369
62	0xbd0a08d3	-0.03369982
63	0xbd36bd5f	-0.044614192
64	0xbef77895	-0.48334184
65	0x3d13c754	0.036078766
66	0xbb56f4c0	-0.003279969
67	0x3e89a270	0.26881742
68	0x3dad3f77	0.084593706
69	0x3db70916	0.0893728
70	0xbdb577ee	-0.088607654
71	0xbee1d46d	-0.4410738
72	0xbdb6dd72	-0.08928956
73	0xbedb1421	-0.42788795
74	0xbeae8bdf	-0.34091088
75	0xbdbdbba8	-0.09264308
76	0xbee22448	-0.44168305
77	0x3c32cbe3	0.010912868
78	0x3ea22d97	0.31675407
79	0x3d8d4764	0.06898382
80	0xbf0ae5b4	-0.5425675
81	0xbe4a147b	-0.19734375
82	0x3e8cbf71	0.27489808
83	0xbe832904	-0.2561723
84	0x3d9e33a7	0.07724696
85	0xbeffb771	-0.49944642
86	0x3dcbadee	0.09945284
87	0x3e68d735	0.22738345
88	0x3e0c5715	0.13705094
89	0xbd2f9d92	-0.04287488
90	0xbe8693c4	-0.2628461
91	0x3e64c26c	0.22339791
92	0x3e1f5eec	0.15563554
93	0x3d135ea0	0.035978913
94	0xbd209322	-0.039202817
95	0xbddc2ade	-0.10750364
96	0xbd97be36	-0.07409327
97	0xbf049e7d	-0.51804334
98	0xbeb4b102	-0.35291296
99	0xbe5d3271	-0.21601273
100	0xbecf31a9	-0.40467575
101	0x3eb5adce	0.35484165
102	0xbdef0615	-0.11671082
103	0x3a54f4d8	0.0008123643
104	0x3ed2fb22	0.41207224
105	0xbe536baf	-0.20646547
106	0xbef7cf3f	-0.48400304
107	0x3d4e4690	0.050360262
108	0x3dc7f527	0.09763556
109	0x3e860124	0.26172745
110	0x3d7472f2	0.059679933
111	0x3e22883f	0.15872286
112	0xbd817584	-0.063212425
113	0xbecaa1b6	-0.395765
114	0xbeb9f9d3	-0.36323413
115	0xbe95def3	-0.2927166
116	0xbebda807	-0.37042257
117	0xbeb6e69f	-0.35722825
118	0x3e415a87	0.1888219
119	0x3d900112	0.07031454
120	0xbe9a535a	-0.30141717
121	0x3e452e99	0.19256057
122	0xbf09e402	-0.5386354
123	0x3cee0315	0.029054204
124	0xbeb727b4	-0.3577248
125	0xbd9ae907	-0.07563978
126	0xbdcd51fd	-0.10025404
127	0xbdb52198	-0.08844298
128	0x3e962c44	0.29330647
129	0xbe4c4b19	-0.19950522
130	0xbd829c6e	-0.06377493
131	0x3d8d0065	0.06884841
132	0xbe652e3e	-0.22380921
133	0xbdc1c827	-0.09462004
134	0xbbc1a9e0	-0.0059101433
135	0x3e8cb18d	0.2747921
136	0x3eb06dab	0.3445867
137	0x3e1fd868	0.15609896
138	0xbdedb3b8	-0.11606544
139	0xbdfbcf42	-0.12295391
140	0xba9fcc57	-0.0012191635
141	0x3d4e61cc	0.050386235
142	0xbf076c2f	-0.5289945
143	0x3d3d22e0	0.046175838
144	0x3e2261b3	0.15857582
145	0xbed9ad55	-0.42515054
146	0xbe695124	-0.22784859
147	0xbebe3f82	-0.37157828
148	0xbdd73341	-0.10507823
149	0x3e8c7812	0.27435356
150	0x3d7f7e38	0.06237623
151	0xbed93ac5	-0.4242765
152	0x3c4e8a05	0.012606149
153	0x3e13ed0e	0.14445898
154	0xbebc046e	-0.3672213
155	0x3e93a889	0.2883952
156	0xbdc10e1b	-0.094265185
157	0xbb0d2922	-0.002153941
158	0xbe1c36f9	-0.15255345
159	0xbca80f4e	-0.02051511
160	0xbdd2c247	-0.10290962
161	0xbd842c72	-0.0645379
162	0xbe822f59	-0.25426748
163	0xbe751131	-0.23932339
164	0xbe0c165b	-0.13680403
165	0xbebe0e7f	-0.37120435
166	0xbd059306	-0.032610916
167	0xbe248a50	-0.16068387
168	0x3e5bf167	0.21478806
169	0xbed619d1	-0.4181657
170	0x3e6c8362	0.23096994
171	0x3c12ff67	0.0089720255
172	0x3dc9bc79	0.098504014
173	0xbf0372f8	-0.51347303
174	0x3d915eee	0.070981845
175	0xbef029c0	-0.46906853
176	0xbda61ed0	-0.08111346
177	0x3e7bb6b6	0.24581417
178	0xbea69f73	-0.32543525
179	0xbdf46cce	-0.11934815
180	0x3ea1628a	0.31520492
181	0xbec556fc	-0.38542926
182	0xbedaed0f	-0.42758986
183	0xbdcb7e86	-0.09936242
184	0x3daa101c	0.08303854
185	0x3ed22b2b	0.4104856
186	0x3eb2f210	0.34950304
187	0xbd8524c0	-0.0650115
188	0xbea9666d	-0.33085957
189	0x3d4e1dee	0.050321512
190	0xbdfdd0b8	-0.123933256
191	0x3c0fa4d9	0.00876733

linear_3.bias f4 [3]
0	0x3e4822c1	0.19544508
1	0xbda7a45a	-0.081856444
2	0xbe01fcd3	-0.12694101
