Snake-Game-Player/model/model1.pth (torch, 93438 bytes, 6 tensors)

linear_1.weight f4 [256, 23]
-0.14747809 -0.06671156 0.016712312 0.28642416 -0.07711527 0.22102539 -0.040898457 0.06592372
-0.23319604 0.101079054 -0.021767084 -0.16597065 -0.27822897 0.022164019 -0.19216888 0.07965552
0.054505453 -0.04266148 -0.040961128 0.041296944 -0.34253636 -0.037902057 -0.05881569 -0.2972733
0.006247841 0.08680419 -0.12740773 -0.10082874 -0.22879073 0.039152455 0.36797506 -0.3107912
0.069540724 -0.3138753 -0.07781014 -0.28619862 -0.5080839 0.18088304 -0.0075872117 0.11637463
-0.18489014 -0.06672915 0.14843795 0.106554516 -0.043447785 -0.024215413 0.12810865 -0.0043339483
-0.037468698 0.17147021 0.16583404 -0.3386052 -0.066896655 -0.12929219 -0.27805266 -0.12959385
0.030239917 -0.14421031 -0.21885535 0.03313775 -0.09564585 0.09547421 0.11357079 0.09396552
-0.36303896 0.20457283 -0.0045735715 0.13795958 -0.21495557 -0.04088509 -0.04148605 0.019038878
-0.07720613 -0.024798041 -0.06089288 -0.08685569 -0.011452742 0.15948267 0.048033398 -0.06214754
-0.34919593 -0.44682553 0.0946785 -0.0061652428 -0.12700947 0.044400875 -0.088879116 0.16672926
-0.118805885 0.0072002467 -0.34322363 0.023013515 -0.21667941 0.10572039 0.2436304 -0.27121884
-0.05118662 0.22249645 0.18350089 -0.049256276 -0.12579376 -0.16684793 0.16038397 0.13476413
0.12553166 0.12437362 -0.07758384 -0.07787296 -0.09077584 0.10884837 -0.11835746 -0.27690327
-0.15130708 0.11257818 -0.08432536 -0.15643068 0.03966762 0.096156076 -0.14036126 0.11012649
-0.13446568 -0.016892308 0.04927384 -0.31171173 0.29892835 -0.2141657 -0.18737102 -0.416206
0.20747748 -0.2117291 0.14220707 0.04893112 0.11081028 -0.07997988 0.13686995 -0.055905513
-0.06525736 0.13324922 -0.071360715 -0.22560759 -0.05339836 0.041164443 0.009216519 -0.16484144
-0.03949074 0.13512477 -0.07207248 0.3052749 -0.34294096 -0.072086655 0.11549563 0.2190688
-0.104442835 -0.07441357 -0.16054963 -0.02367276 -0.045075625 -0.13772757 0.0054247887 -0.035742585
0.02786086 -0.13097574 -0.17472394 0.10705911 0.102907255 0.07493741 -0.025021201 -0.23022068
0.11235096 -0.34739515 -0.04968833 -0.40132666 -0.32649195 0.06120731 0.2695091 -0.2595102
-0.044389963 -0.022674587 -0.091016434 -0.04021786 -0.07213442 0.048647024 0.059184276 0.13969675
0.18549271 -0.069400035 0.044969738 -0.12410971 0.13889778 -0.08551383 -0.13149737 -0.14321195
-0.007159306 0.18133 -0.0663417 0.12631348 -0.05041898 0.05390954 0.023156581 -0.15688737
-0.14393379 -0.17804183 -0.1830156 0.0063677058 -0.0055192537 0.09719121 -0.06552942 0.050021257
0.12478808 0.0051819053 0.06455926 0.078985594 -0.058171377 0.0357732 -0.13746801 -0.2234274
0.09506384 -0.18782073 -0.060710598 -0.10508731 -0.079386525 -0.005649084 0.0031385475 -0.0129599245
-0.022609064 -0.21208946 0.048268657 -0.14204793 -0.15376985 -0.108840935 0.13603613 -0.24647807
-0.11063401 0.023994075 -0.18221924 -0.18165481 0.24776366 -0.36067346 -0.09038951 0.15678225
-0.20051081 -0.26376352 0.20388618 -0.10107013 -0.047427192 -0.23429297 -0.0027020506 0.113383666
0.0786587 -0.1381756 0.16144991 0.15474732 -0.030071104 -0.024695722 0.1701114 -0.18239284
00000000: 7f04 17be 12a0 88bd 42e8 883c 30a6 923e
00000010: 9cee 9dbd 7b54 623e 2485 27bd 0403 873d
00000020: f1ca 6ebe 8902 cf3d e250 b2bc 36f4 29be
00000030: 0774 8ebe 5191 b53c ebc7 44be 6f22 a33d
00000040: 1c41 5f3d cebd 2ebd dbc6 27bd fc26 293d
00000050: ed60 afbe 303f 1bbd b9e8 70bd 3534 98be
00000060: b0ba cc3b 65c6 b13d 2c77 02be 4c7f cebd
00000070: 1e48 6abe 535e 203d 3a67 bc3e 0620 9fbe
00000080: 5e6b 8e3d 43b4 a0be ec5a 9fbd a088 92be
00000090: c911 02bf 6739 393e 259e f8bb d255 ee3d
000000a0: d753 3dbe 4ba9 88bd 1e00 183e 4139 da3d
000000b0: 4ef6 31bd 675f c6bc ea2e 033e cb03 8ebb
000000c0: c778 19bd e395 2f3e 66d0 293e a95d adbe
000000d0: 1d01 89bd 2c65 04be eb5c 8ebe 40b4 04be
000000e0: b4b9 f73c deab 13be 9e1b 60be 73bb 073d
000000f0: f9e1 c3bd fc87 c33d cd97 e83d ff70 c03d
00000100: 3ee0 b9be 8a7b 513e e6dd 95bb 4745 0d3e
00000110: 501d 5cbe 2077 27bd 47ed 29bd 6cf7 9b3c
00000120: 3f1e 9ebd 4325 cbbc d06a 79bd 65e1 b1bd
00000130: 48a4 3bbc 6d4f 233e abbe 443d 6b8e 7ebd
00000140: cfc9 b2be 51c6 e4be cde6 c13d ce05 cabb
00000150: c50e 02be b1dd 353d 4106 b6bd 13bb 2a3e
00000160: 8050 f3bd 0cf0 eb3b 02bb afbe d786 bc3c
00000170: 35e1 5dbe ef83 d83d 3f7a 793e 32dd 8abe
00000180: 10a9 51bd 1cd6 633e a8e7 3b3e f3c0 49bd
00000190: 14d0 00be 2fda 2abe b23b 243e 9cff 093e
000001a0: 5f8b 003e 99b7 fe3d 47e4 9ebd dc7b 9fbd
000001b0: afe8 b9bd e5eb de3d 6565 f2bd 44c6 8dbe
000001c0: 3ef0 1abe 648f e63d c6b2 acbd 5d2f 20be
000001d0: 847a 223d 7aed c43d ddba 0fbe ff89 e13d
000001e0: 5fb1 09be bd61 8abc 5ed3 493d ae98 9fbe
000001f0: 230d 993e 414e 5bbe 30de 3fbe f418 d5be
00000200: fa74 543e 83cf 58be bb9e 113e 006c 483d
00000210: 80f0 e23d 7ecc a3bd a327 0c3e 2efd 64bd
00000220: a7a5 85bd 7c72 083e 9125 92bd ad05 67be
00000230: 3db8 5abd 0c9c 283d e200 173c 32cc 28be
00000240: 0bc1 21bd 265e 0a3e bd9a 93bd fe4c 9c3e
00000250: f595 afbe 2ba2 93bd f988 ec3d 9253 603e
00000260: 20e6 d5bd 2466 98bd 1f67 24be 60ed c1bc
00000270: 38a1 38bd 7508 0dbe 6dc2 b13b d166 12bd
00000280: 753c e43c 811e 06be d5ea 32be cf41 db3d
00000290: 0ac1 d23d c978 993d 43f9 ccbc f8be 6bbe
000002a0: 4318 e63d c7dd b1be fe85 4bbd b07a cdbe
000002b0: f429 a7be 84b4 7a3d 19fd 893e 85de 84be
000002c0: 40d2 35bd 0ec0 b9bc d366 babd 7cbb 24bd
000002d0: 36bb 93bd 1a42 473d 366b 723d aa0c 0f3e
000002e0: cdf1 3d3e 9b21 8ebd 3032 383d 3b2d febd
000002f0: 383b 0e3e e021 afbd 3fa7 06be 27a6 12be
00000300: 9d98 eabb 92ae 393e 28de 87bd 5258 013e
00000310: 2284 4ebd 40d0 5c3d dfb2 bd3c 15a7 20be
00000320: 6163 13be 9950 36be 7168 3bbe 30a8 d03b
00000330: dbda b4bb 2f0c c73d 4a34 86bd 17e3 4c3d
00000340: e590 ff3d f9cc a93b a537 843d 33c3 a13d
00000350: 1c45 6ebd eb86 123d 6ac4 0cbe 27ca 64be
00000360: d5b0 c23d 1454 40be adab 78bd 0438 d7bd
00000370: 6795 a2bd f41b b9bb 17b0 4d3b dd55 54bc
00000380: a536 b9bc fb2d 59be 5bb5 453d 0375 11be
00000390: d875 1dbe ffe7 debd 0e4d 0b3e bf64 7cbe
000003a0: 1594 e2bd 398f c43c ae97 3abe b803 3abe
000003b0: c2b5 7d3e 31aa b8be 231e b9bd 878b 203e
000003c0: b552 4dbe 030c 87be 8ac7 503e dbfd cebd
000003d0: 0443 42bd 7fea 6fbe e314 31bb b235 e83d
000003e0: d017 a13d e87d 0dbe 2053 253e 1576 1e3e
000003f0: ad57 f6bc af4e cabc af31 2e3e 30c5 3abe

linear_1.bias f4 [256]
0.089697815 0.039375305 -0.06556395 -0.023500705 -0.20456408 -0.23667543 -0.053643573 -0.040116392
-0.04561489 -0.04530967 -0.102006495 -0.01974827 -0.023565462 -0.006921056 0.07812556 0.18931149
-0.10383338 -0.16711366 0.093444966 -0.027590614 0.10658031 -0.07259079 0.056019 0.025279298
0.18363987 -0.043398056 0.14088747 0.06597481 -0.0658054 0.12916327 -0.07988942 -0.18522915
0.15810336 0.19428818 -0.1209703 -0.14365183 0.1571263 -0.09360313 0.13985795 -0.088915385
0.14916126 0.043669887 0.06209328 -0.19711247 0.16587585 0.16434488 0.084140986 0.018696832
-0.04522056 -0.1640867 0.11904676 0.021057751 -0.017127592 -0.054080624 -0.23197608 -0.17125413
-0.07977692 -0.0036198057 0.07813267 0.07548316 -0.12139978 -0.14408913 -0.08121348 -0.17797856
-0.010136798 -0.12353672 0.1253782 0.02681651 0.04159914 -0.020992199 -0.020630483 -0.17373581
0.14615376 0.037947476 0.0556683 0.20798633 0.10747304 -0.06897458 -0.10636658 -0.056724444
-0.20645773 0.033082344 0.0720643 0.07713808 0.12838188 0.009845017 0.068873845 -0.016317956
0.14133248 0.048712697 -0.08186795 -0.15446211 0.09107132 0.16939421 0.1413536 0.06688384
0.09746964 0.016426006 0.12728617 -0.0039822585 -0.07414014 -0.10992075 0.055205658 -0.28631318
-0.014684943 0.08676014 -0.20703451 0.14059088 0.064437084 0.03601049 -0.19102842 -0.13354777
-0.11481712 0.14276919 0.11671709 -0.009773194 -0.0028739283 -0.093327396 -0.21025164 0.061345436
-0.010134416 -0.14655012 0.0039812755 -0.06068636 -0.07054979 0.01792243 0.0100292675 0.11730381
-0.09785283 0.053378392 0.008386316 0.0775822 -0.16240174 0.20724966 -0.094230756 -0.0031965787
-0.023072513 0.06796984 -0.094132856 -0.08042367 0.17995661 -0.030209266 0.10045444 0.026698012
-0.090924755 -0.19664542 0.028389346 0.12986507 -0.0075622317 0.07155878 0.0939465 0.07330852
0.09096731 0.044798855 -0.09847189 -0.1296361 -0.13286325 -0.048172966 -0.068539195 -0.07398928
0.11043268 0.043136466 -0.116376445 -0.06581719 0.12593777 -0.056602124 0.14902163 0.017896814
0.06040442 0.013669647 -0.11749259 -0.23663555 -0.0781355 -0.0012632847 -0.21955702 -0.13804038
-0.12135156 -0.011507287 -0.07671581 -0.1552413 -0.042618178 0.13848244 -0.0719785 0.04872168
-0.12248929 -0.022790225 -0.15940316 0.018995838 -0.097772695 0.11578886 -0.14304121 0.1323474
0.04547547 0.12624843 0.07576947 0.023486316 -0.17922774 0.19854493 -0.075328104 -0.2248588
-0.13591662 0.14801535 -0.04404565 -0.0006810662 0.010876007 0.018270615 -0.11917303 0.05046796
-0.09769321 0.2031399 0.16945952 -0.103597715 -0.1422596 -0.05220623 -0.019741233 -0.026497655
-0.09628048 -0.09732016 0.019274145 -0.10984035 -0.029457532 0.01624239 0.0153025575 0.061265092
-0.047872346 -0.22099364 -0.06404665 -0.037582014 -0.094240986 -0.07274355 0.09416298 -0.062203147
0.0671021 0.07423131 0.12387291 0.06965911 -0.0877923 -0.05407824 0.11232491 0.09693884
0.10545792 -0.08507611 0.22692305 -0.09057645 -0.035380315 -0.017325934 -0.062113546 -0.011587832
0.15020613 -0.023987193 0.10848828 -0.07460508 0.07145256 0.27079093 0.17175043 0.0067191184
00000000: 7db3 b73d 0048 213d 6446 86bd 8d84 c0bc
00000010: 3f79 51be 0b5b 72be 5db9 5bbd 1651 24bd
00000020: aed6 3abd a296 39bd c8e8 d0bd 20c7 a1bc
00000030: 5b0c c1bc 07ca e2bb 4b00 a03d dfda 413e
00000040: 98a6 d4bd d81f 2bbe 1360 bf3d b605 e2bc
00000050: c746 da3d 7baa 94bd 2e74 653d 8816 cf3c
00000060: 170c 3c3e 29c2 31bd ce44 103e cd1d 873d
00000070: fbc4 86bd 6043 043e 109d a3bd b6ac 3dbe
00000080: d9e5 213e 7bf3 463e 47bf f7bd 7719 13be
00000090: b7e5 203e ffb2 bfbd ec36 0f3e 4519 b6bd
000000a0: bbbd 183e 32df 323d 8655 7e3d dad7 49be
000000b0: 5cdb 293e 064a 283e 1c52 ac3d 192a 993c
000000c0: 3239 39bd 5806 28be cace f33d 4e81 ac3c
000000d0: 2a4f 8cbc a583 5dbd 238b 6dbe 3e5d 2fbe
000000e0: 1562 a3bd 433a 6dbb 0504 a03d ea96 9a3d
000000f0: 73a0 f8bd 1a8c 13be 4153 a6bd 0340 36be
00000100: d014 26bc d200 fdbd 2563 003e 4cae db3c
00000110: dc63 2a3d d5f7 abbc 4201 a9bc cde7 31be
00000120: 55a9 153e d06e 1b3d 7104 643d 5efa 543e
00000130: d31a dc3d 8b42 8dbd b9d6 d9bd e457 68bd
00000140: a869 53be 5a81 073d 7396 933d 92fa 9d3d
00000150: 8a76 033e ff4c 213c bb0d 8d3d 3cad 85bc
00000160: 76b9 103e f786 473d 62aa a7bd 512b 1ebe
00000170: 9a83 ba3d ad75 2d3e 00bf 103e 65fa 883d
00000180: 2a9e c73d d58f 863c 4e57 023e 9b7d 82bb
00000190: c9d6 97bd 211e e1bd 541f 623d a497 92be
000001a0: 1d99 70bc 4daf b13d db00 54be 0ef7 0f3e
000001b0: 97f7 833d bc7f 133d f49c 43be bfc0 08be
000001c0: 3d25 ebbd 1632 123e 5f09 ef3d bf1f 20bc
000001d0: 8458 3cbb 6f22 bfbd 354c 57be 5a45 7b3d
000001e0: d20a 26bc 3c11 16be 5c75 823b 4392 78bd
000001f0: 697c 90bd 0fd2 923c cc51 243c fb3c f03d
00000200: 1167 c8bd 4da3 5a3d c266 093c 6be3 9e3d
00000210: a44c 26be 4139 543e 0efc c0bd b17d 51bb
00000220: 9102 bdbc c533 8b3d bac8 c0bd 2ab5 a4bd
00000230: 8c46 383e 6c79 f7bc 0fbb cd3d cab5 da3c
00000240: c236 babd 6b5d 49be c690 e83c 59fb 043e
00000250: 99cc f7bb 698d 923d 0667 c03d c722 963d
00000260: 124d ba3d 017f 373d a1ab c9bd 53bf 04be
00000270: 4e0d 08be 0451 45bd 475e 8cbd b187 97bd
00000280: 872a e23d ddaf 303d c656 eebd 2acb 86bd
00000290: d5f5 003e a1d7 67bd 2099 183e 579c 923c
000002a0: a06a 773d a8f6 5f3c f49f f0bd 9750 72be
000002b0: 8105 a0bd cd94 a5ba 8ed3 60be 755a 0dbe
000002c0: 2b87 f8bd 0f89 3cbc 2e1d 9dbd 93f7 1ebe
000002d0: 6690 2ebd 57ce 0d3e 7769 93bd 6290 473d
000002e0: aadb fabd 91b2 babc 953a 23be 299d 9b3c
000002f0: 0d3d c8bd b622 ed3d 6579 12be 1486 073e
00000300: 7d44 3a3d 4547 013e 062d 9b3d 6066 c03c
00000310: 7a87 37be 5d4f 4b3e 9f45 9abd 6341 66be
00000320: ba2d 0bbe 5691 173e 3669 34bd 9489 32ba
00000330: 4831 323c 42ac 953c fd10 f4bd 7eb7 4e3d
00000340: 6113 c8bd e803 503e cc86 2d3e 0a2b d4bd
00000350: 80ac 11be 33d6 55bd 5eb8 a1bc 9c11 d9bc
00000360: b32e c5bd cb4f c7bd d0e4 9d3c faf3 e0bd
00000370: ec50 f1bc c30e 853c 94b7 7a3c 1bf1 7a3d
00000380: cb15 44bd 284c 62be e42a 83bd 99ef 19bd
00000390: 6b01 c1bd 92fa 94bd 85d8 c03d bac8 7ebd
000003a0: d36c 893d 9606 983d 15b1 fd3d 6fa9 8e3d
000003b0: 73cc b3bd 2581 5dbd 9a0a e63d df87 c63d
000003c0: 52fa d73d 623c aebd 845e 683e 2580 b9bd
000003d0: f3ea 10bd 1eef 8dbc c66a 7ebd e4da 3dbc
000003e0: a3cf 193e ca80 c4bc 1a2f de3d 8cca 98bd
000003f0: b855 923d 1ca5 8a3e 58df 2f3e 0d2c dc3b

linear_2.weight f4 [64, 256]
0.08444596 0.068688795 -0.11587964 -0.082037054 -0.027869383 -0.13147703 -0.036946613 -0.04401676
-0.05437209 -0.018221736 -0.13513121 -0.048299316 0.06089973 -0.058764745 0.014597705 0.038172103
-0.100767046 -0.020200007 0.037692636 -0.058449913 -0.0014278049 -0.0837164 -0.04495872 -0.0053195218
0.0007631137 -0.017122217 -0.14929162 0.049998056 0.14219679 0.068226285 -0.045140468 -0.04879502
0.042425964 -0.0064786016 -0.046279233 -0.04200891 0.018315585 0.011862389 -0.04370251 -0.021160034
-0.06519103 -0.13040952 -0.036678333 -0.019306593 -0.017121123 0.053697404 0.10302257 -0.07492775
-0.07971457 0.0768893 -0.13845827 0.07384106 0.031605013 0.05223593 0.0057645286 0.057728436
-0.107480645 -0.052156303 0.029436648 -0.17634454 -0.06983757 -0.025022373 -0.056103397 -0.06692948
-0.057054367 -0.16441804 0.06319365 -0.08229259 0.025937544 0.050323527 0.11081631 -0.049143095
-0.0287776 -0.08574384 -0.039253626 0.07193947 0.017243614 -0.05593151 -0.12941849 -0.09853689
-0.021883054 0.16224913 -0.058693442 -0.08392264 -0.02951493 -0.033893522 -0.020107614 0.09638188
0.09409746 -0.024088189 0.12649839 -0.07046597 0.048098348 -0.015844999 0.07882997 -0.06024115
-0.016355177 -0.049969632 -0.04352228 -0.066874124 0.0015382261 0.058531623 -0.10807365 0.079905435
0.0022139922 0.066945665 -0.0853809 -0.15001689 -0.056212965 0.04252721 0.11217178 0.037713315
-0.12949698 -0.08505564 -0.093374416 0.016262358 -0.22955066 -0.17818005 0.046016127 -0.09762592
-0.06556887 -0.0015059116 -0.030863533 -0.1093169 0.0065800715 0.013569973 -0.045140613 -0.021950142
0.009888544 0.0044488073 -0.12364766 0.01887766 -0.038099986 0.12573338 0.057579614 -0.13524243
0.040008593 -0.12969418 0.02011209 -0.06409398 -0.027855964 -0.0024880015 0.08376207 -0.13694122
-0.011632946 0.08740644 -0.014141489 0.021323282 -0.0820415 0.032657962 0.04229825 0.032354467
-0.01553949 -0.04383641 -0.16158065 -0.11472326 0.018137723 0.026908016 -0.023547627 0.047575276
0.07849097 0.032069977 -0.0074180244 -0.024500728 -0.07938531 0.089302 -0.020996992 -0.07600655
0.06462661 0.06962104 0.059359245 0.055171713 -0.05760456 0.07879125 0.009294992 -0.048196644
-0.080919065 -0.08850366 0.11180759 -0.09285394 -0.10829537 0.15805204 0.03867189 -0.03474046
-0.016353503 0.17031686 0.017260896 0.084425 -0.13568336 -0.10528434 0.07234236 0.028421786
-0.026241263 -0.10673525 -0.016125234 -0.017998295 -0.13093144 -0.17792492 -0.05309268 -0.013004141
0.021167528 0.052668605 -0.038468573 8.3080624e-05 -0.0485688 0.04448166 0.0003485217 0.09096104
0.01599685 0.09328401 -0.0064898455 -0.14935383 -0.10630989 -0.11170925 -0.08184577 -0.099812575
0.010350763 -6.631358e-05 0.07990973 0.122218065 0.11796111 -0.11397606 -0.011649875 -0.20026752
-0.10693858 0.06634115 -0.040409286 0.07939552 -0.0481074 -0.039725456 -0.010601258 -0.052046355
0.05699769 -0.012415407 0.03054556 -0.0386541 -0.026346117 -0.07929241 -0.037052874 -0.12934418
-0.07212997 -0.06076949 -0.12185999 0.0047185807 -0.08013546 0.007825999 -0.09496083 -0.00043434568
-0.05108962 0.05194797 0.058320113 -0.10077693 -0.021548076 0.086474314 -0.014113754 -0.026574
00000000: 01f2 ac3d b6ac 8c3d 4e52 edbd 0b03 a8bd
00000010: 554e e4bc eaa1 06be 5555 17bd eb4a 34bd
00000020: 45b5 5ebd c045 95bc d65f 0abe 81d5 45bd
00000030: ff71 793d 4db3 70bd 362b 6f3c 5a5a 1c3d
00000040: f45e cebd 7c7a a5bc 9863 1a3d 2d69 6fbd
00000050: 2f25 bbba 8173 abbd a326 38bd 624f aebb
00000060: b20b 483a e443 8cbc e7df 18be c3ca 4c3d
00000070: 099c 113e 39ba 8b3d 36e5 38bd 49dd 47bd
00000080: d9c6 2d3d 734a d4bb 4b8f 3dbd 8911 2cbd
00000090: 910a 963c 775a 423c 6701 33bd cf57 adbc
000000a0: e082 85bd 138a 05be 053c 16bd dc28 9ebc
000000b0: 9941 8cbc cff1 5b3d 7ffd d23d b873 99bd
000000c0: 6441 a3bd 2378 9d3d 01c8 0dbe fb39 973d
000000d0: 4274 013d 58f5 553d 5fe4 bc3b a774 6c3d
000000e0: d01e dcbd d9a1 55bd 2025 f13c aa93 34be
000000f0: 0007 8fbd b8fb ccbc adcc 65bd 5312 89bd
00000100: d7b1 69bd 345d 28be ac6b 813d 0489 a8bd
00000110: f97a d43c 0b20 4e3d a9f3 e23d 454a 49bd
00000120: 00bf ebbc 779a afbd 69c8 20bd 0055 933d
00000130: 7b42 8d3c 7018 65bd 4886 04be b5cd c9bd
00000140: 1744 b3bc a324 263e 8968 70bd a2df abbd
00000150: 4bc9 f1bc efd3 0abd b9b8 a4bc dd63 c53d
00000160: 2bb6 c03d 9854 c5bc cb88 013e 7650 90bd
00000170: c602 453d 5fcd 81bc 9b71 a13d 6dbf 76bd
00000180: 4bfb 85bc f5ac 4cbd 6b44 32bd 4df5 88bd
00000190: 4e9e c93a dbbe 6f3d b855 ddbd 76a5 a33d
000001a0: a018 113b cf1a 893d 2edc aebd 079e 19be
000001b0: 913f 66bd 0331 2e3d 51ba e53d 4779 1a3d
000001c0: db9a 04be a731 aebd 163b bfbd a338 853c
000001d0: 540f 6bbe d574 36be 687b 3c3d 19f0 c7bd
000001e0: f948 86bd 0262 c5ba 85d5 fcbc 8ae1 dfbd
000001f0: a49d d73b 9854 5e3c 5de5 38bd c9d0 b3bc
00000200: 8f03 223c 4dc7 913b fc3a fdbd 53a5 9a3c
00000210: bb0e 1cbd 40c0 003e 9ad8 6b3d fe7c 0abe
00000220: 0de0 233d 8dce 04be 1cc2 a43c b443 83bd
00000230: 3132 e4bc bd0d 23bb 738b ab3d 523a 0cbe
00000240: 1d98 3ebc 2602 b33d b4b1 67bc 2aae ae3c
00000250: 6005 a8bd 5bc4 053d ee40 2d3d 1e86 043d
00000260: 5899 7ebc cf8d 33bd 6675 25be 07f4 eabd
00000270: 9095 943c 336e dc3c f4e6 c0bc 4bde 423d
00000280: e0bf a03d cf5b 033d e612 f3bb c0b5 c8bc
00000290: c494 a2bd f8e3 b63d e201 acbc 52a9 9bbd
000002a0: f55a 843d 7a95 8e3d ae22 733d bcfb 613d
000002b0: c2f2 6bbd 4f5d a13d 064a 183c d869 45bd
000002c0: e5b8 a5bd 6841 b5bd 61fb e43d 352a bebd
000002d0: f7c9 ddbd 65d8 213e 6a66 1e3d 034c 0ebd
000002e0: c8f7 85bc 8b67 2e3e b966 8d3c 04e7 ac3d
000002f0: 94f0 0abe 519f d7bd 3b28 943d ced4 e83c
00000300: ebf7 d6bc 0398 dabd 1119 84bc 2971 93bc
00000310: e412 06be f331 36be b677 59bd 520f 55bc
00000320: 8667 ad3c 09bb 573d 3991 1dbd 923b ae38
00000330: 14f0 46bd 6732 363d cab9 b639 c849 ba3d
00000340: d30b 833c b00b bf3d c5a8 d4bb 36f0 18be
00000350: 00b9 d9bd d2c7 e4bd c19e a7bd 896a ccbd
00000360: 3f96 293c d511 8bb8 b6a7 a33d 774d fa3d
00000370: 9895 f13d 486c e9bd 1edf 3ebc ee12 4dbe
00000380: 9d02 dbbd dedd 873d 3584 25bd 1e9a a23d
00000390: 440c 45bd 29b7 22bd e6b0 2dbc 8f2e 55bd
000003a0: 6976 693d fe69 4bbc af3a fa3c c353 1ebd
000003b0: d0d3 d7bc 0f64 a2bd c1c4 17bd cd72 04be
000003c0: e1b8 93bd 6ee9 78bd bb91 f9bd 539e 9a3b
000003d0: 0f1e a4bd 9e38 003c d37a c2bd e4b8 e3b9
000003e0: 5943 51bd 65c7 543d 12e1 6e3d 2364 cebd
000003f0: 9785 b0bc 7219 b13d 603d 67bc b8b1 d9bc

linear_2.bias f4 [64]
-0.054394282 -0.03997423 -0.0023790388 0.017839782 -0.0067655323 0.016319834 0.09754877 0.0044330144
-0.014493255 -0.0036594218 -0.034971453 -0.0023834682 -0.071899675 0.07686785 -0.046467528 -0.05338741
-0.0026033146 0.12743661 -0.0015204552 0.014864868 0.03519919 0.0047423877 0.03843071 -0.058736388
-0.009678364 0.01818762 -0.013594966 0.0042050392 -0.027108043 0.08875528 -0.046597134 0.018658003
0.020980222 -0.024322605 -0.012621512 -0.02498748 0.036605906 -0.10177388 -0.065849215 -0.04725625
0.100142844 -0.09171259 -0.08947789 0.0782811 -0.030104619 -0.036309186 0.18341106 -0.009103391
0.003526837 0.012628272 0.036567777 0.0435553 0.020602236 0.042459235 0.07904601 0.013699045
-0.04485609 0.0049844235 -0.027095942 0.029384412 -0.024690583 0.084169544 0.1155503 -0.07847126
00000000: 8acc 5ebd 05bc 23bd a6e9 1bbb bc24 923c
00000010: 66b1 ddbb 2cb1 853c a6c7 c73d d242 913b
00000020: 1e75 6dbc e9d2 6fbb 3a3e 0fbd f633 1cbb
00000030: 2340 93bd e46c 9d3d bc54 3ebd c2ac 5abd
00000040: 5f9c 2abb be7e 023e 034a c7ba c68b 733c
00000050: 072d 103d 0866 9b3b 8569 1d3d 9195 70bd
00000060: 0092 1ebc 34fe 943c 6cbd 5ebc 6dca 893b
00000070: b011 debc 54c5 b53d a3dc 3ebd abd8 983c
00000080: b7de ab3c 3340 c7bc 75ca 4ebc 8bb2 ccbc
00000090: 13f0 153d d36e d0bd f4db 86bd c58f 41bd
000000a0: b117 cd3d cfd3 bbbd 2f40 b7bd d751 a03d
000000b0: f69d f6bc f1b8 14bd 1cd0 3b3e 6426 15bc
000000c0: 8222 673b d0e6 4e3c 18c8 153d 0b67 323d
000000d0: 05c6 a83c bce9 2d3d e0e2 a13d f671 603c
000000e0: 05bb 37bd 6054 a33b 4ff8 ddbc 94b7 f03c
000000f0: e843 cabc 1561 ac3d a3a5 ec3d 8ab5 a0bd

linear_3.weight f4 [3, 64]
0.07979652 -0.12421158 -0.33486724 0.07133182 -0.040560976 0.04481721 0.07972719 0.09956022
-0.20229009 0.094683 0.089654386 -0.2175942 0.026144423 0.27766952 0.050126 -0.06356952
0.1062367 0.10430614 0.106216595 0.1026779 0.0017581796 0.008242984 -0.102960326 -0.10605328
0.06130334 -0.1314973 -0.01725174 -0.12583086 -0.023824029 0.17676981 -0.06401289 0.0061004153
0.053430535 0.094860315 0.064787775 0.03949914 0.013294307 0.07004605 0.06939382 -0.021372879
0.14856248 -0.03086735 -0.21846628 0.10607329 0.028836148 -0.010292282 0.16534816 0.24312077
0.07068411 -0.0074003823 0.0014304413 -0.062376454 -0.075556405 0.11715133 0.24551135 0.012245705
-0.07884568 -0.10986999 0.1050539 0.017617177 0.04163757 0.116756365 0.15131417 0.116129175
-0.11076992 0.05949673 0.03079822 0.01131346 0.1660665 0.08465001 -0.21184202 -0.26524824
-0.102759846 0.1515122 0.013456942 0.24344477 -0.007892494 -0.0063948357 0.034015205 0.08827217
0.010160088 0.07342851 -0.035879496 -0.03128561 -0.011152485 -0.08673014 0.13098247 -0.022187747
0.07895832 -0.12009427 -0.05587746 -0.18852067 -0.18673798 0.054220714 0.050733503 0.0818244
0.19447339 0.015548146 0.15838313 -0.09610574 0.03079314 -0.023043571 0.016406566 -0.008278308
0.18774845 0.01659855 0.11296957 -0.018518653 0.06706591 -0.059837442 0.17427991 0.022069909
0.09192832 -0.042472992 -0.12411689 -0.006144171 -0.113151476 -0.05349802 0.08438649 0.07382299
0.15749747 -0.2507096 -0.037473224 0.12967102 -0.10444074 -0.15259773 -0.04640006 0.115661696
0.08429861 0.076648235 0.11303202 0.04214056 -0.26014972 0.04369775 0.24640067 0.08729778
-0.030316897 -0.33393848 -0.088076115 -0.100127 0.021271637 -0.0779915 -0.11202256 -0.0033809512
0.02071327 0.25366157 -0.005890781 0.027590115 0.16793838 0.2278205 -0.1960521 -0.05922277
-0.024746142 0.18004148 0.014808903 -0.042623103 0.14618099 -0.11904359 -0.02621527 -0.09245616
-0.34820625 -0.021152487 -0.25111398 -0.08874587 0.10492375 -0.07690184 -0.036187887 0.026972063
-0.16747287 -0.012799015 -0.16523302 0.14111833 -0.08624477 0.05337265 0.13133141 -0.14467694
-0.05644491 -0.11456731 -0.082619876 0.033245545 0.008357084 0.22654329 0.16256261 0.06314235
-0.25205195 0.093733236 0.10163543 -0.21694027 -0.014064752 0.16737983 0.19659366 -0.005936043
00000000: 5c6c a33d a462 febd b873 abbe 6b16 923d
00000010: 4423 26bd 4092 373d 0248 a33d 3be6 cb3d
00000020: 2225 4fbe 29e9 c13d b89c b73d 04d1 5ebe
00000030: d42c d63c b32a 8e3e ec50 4d3d bd30 82bd
00000040: a192 d93d 759e d53d 1688 d93d ca48 d23d
00000050: b872 e63a 950d 073c dddc d2bd 7632 d9bd
00000060: 3619 7b3d 3aa7 06be 8553 8dbc ced9 00be
00000070: 9c2a c3bc 2503 353e 3119 83bd fee5 c73b
00000080: fad9 5a3d 2046 c23d 74af 843d dac9 213d
00000090: 5dd0 593c 4e74 8f3d 591e 8e3d 2d16 afbc
000000a0: c320 183e 86dd fcbc a0b5 5fbe f43c d93d
000000b0: c939 ec3c f6a0 28bc 0751 293e a7f4 783e
000000c0: d5c2 903d e87e f2bb a57d bb3a 747e 7fbd
000000d0: 51bd 9abd 09ed ef3d 5467 7b3e 36a2 483c
000000e0: d879 a1bd 8403 e1bd 8026 d73d e651 903c
000000f0: 288c 2a3d f61d ef3d 1af2 1a3e 22d5 ed3d
00000100: 57db e2bd d8b2 733d 8c4c fc3c 175c 393c
00000110: 560d 2a3e fc5c ad3d 1ded 58be 9ece 87be
00000120: c173 d2bd 0426 1b3e 817a 5c3c 9649 793e
00000130: 854f 01bc c58b d1bb 8753 0b3d 0ac8 b43d
00000140: 7f76 263c b061 963d 61f6 12bd 5725 00bd
00000150: eab8 36bc 929f b1bd 4520 063e 14c3 b5bc
00000160: e6b4 a13d fcf3 f5bd c3df 64bd 900b 41be
00000170: 3e38 3fbe 8a16 5e3d efcd 4f3d 8d93 a73d
00000180: 0824 473e a7bd 7e3c 302f 223e 16d3 c4bd
00000190: e541 fc3c dfc5 bcbc 1067 863c bea1 07bc
000001a0: 2141 403e aff9 873c 975c e73d 6eb4 97bc
000001b0: da59 893d 1b18 75bd 6f76 323e f4cb b43c
000001c0: ea44 bc3d 29f8 2dbd ff30 febd 0b55 c9bb
000001d0: f6bb e7bd bd20 5bbd d3d2 ac3d 8230 973d
000001e0: 0447 213e 025d 80be 867d 19bd 7bc8 043e
000001f0: 07e5 d5bd 9442 1cbe fd0d 3ebd 0ae0 ec3d
00000200: c0a4 ac3d c0f9 9c3d 557d e73d 949b 2c3d
00000210: 5832 85be 69fc 323d 7550 7c3e 2ec9 b23d
00000220: 245b f8bc fcf9 aabe 4061 b4bd 620f cdbd
00000230: db41 ae3c 02ba 9fbd 156c e5bd f392 5dbb
00000240: e0ae a93c eedf 813e 7407 c1bb aa04 e23c
00000250: 0af8 2b3e c749 693e e2c1 48be 9393 72bd
00000260: 6cb8 cabc cb5c 383e 0ba1 723c 9095 2ebd
00000270: 78b0 153e 20cd f3bd 68c1 d6bc a859 bdbd
00000280: 1748 b2be fb47 adbc 0392 80be 65c0 b5bd
00000290: 43e2 d63d b67e 9dbd c039 14bd 84f4 dc3c
000002a0: 027e 2bbe f6b2 51bc d832 29be 5381 103e
000002b0: 19a1 b0bd 489d 5a3d be7b 063e 3126 14be
000002c0: c732 67bd 44a2 eabd 9c34 a9bd 7b2c 083d
000002d0: 27ec 083c f7fa 673e d076 263e c750 813d
000002e0: f40c 81be 36f7 bf3d 3c26 d03d 9725 5ebe
000002f0: d86f 66bc 9e65 2b3e d94f 493e 2383 c2bb

linear_3.bias f4 [3]
0.23844784 0.048463784 0.13037404
00000000: ac2b 743e f681 463d c680 053e
